predictive_model/model.pth (torch, 9436 bytes, 9 tensors)

weight f4 [16, 9]
0	0x3e8b8a57	0.27253982
1	0x3e8c7edc	0.27440536
2	0x3f1c1dc8	0.6098294
3	0x3ecdcf42	0.40197188
4	0x3ef93935	0.48676458
5	0xbf2049d1	-0.62612635
6	0xbedb6687	-0.4285166
7	0xbdd5ce13	-0.10439696
8	0xbd9fe739	-0.07807774
9	0xbf86f8ce	-1.0544679
10	0xbf538e24	-0.82638764
11	0x3f2d2f64	0.6765044
12	0xbe3b417e	-0.18286702
13	0xbf1ba317	-0.6079573
14	0xbf0aa43f	-0.5415687
15	0xbf861821	-1.0476114
16	0x3e8fb132	0.28064877
17	0xbecbe0da	-0.39819986
18	0x3f3368e5	0.7008193
19	0xbe2b60b2	-0.16736105
20	0xbf97ccf7	-1.1859425
21	0xbe5f1703	-0.21786122
22	0x3e646c16	0.22306857
23	0xbec4349e	-0.38321394
24	0xbe7d06d8	-0.24709642
25	0x3e1794b9	0.14802827
26	0xbe004442	-0.12526038
27	0xbd1d3e55	-0.038389523
28	0x3efd93cc	0.49526823
29	0x3ea7ea8d	0.32796136
30	0x3dc72060	0.09722972
31	0x3e16bbda	0.14720097
32	0xbebd127e	-0.3692817
33	0xbe0cd027	-0.13751279
34	0xbdfd5be3	-0.123710416
35	0xbf87d67b	-1.0612329
36	0xbf9338ae	-1.1501672
37	0xbe101f51	-0.14074446
38	0x3cf8fe77	0.030394776
39	0x3eff6886	0.49884433
40	0xbe7aeafe	-0.24503705
41	0xbed4e0bb	-0.41577706
42	0xbe330be6	-0.17485008
43	0x3ef57728	0.47942472
44	0xbf0a66ec	-0.54063296
45	0xbeca9da1	-0.39573386
46	0xbf828c16	-1.0199001
47	0xbf163e21	-0.5868855
48	0xbef7083a	-0.48248464
49	0x3dedf69b	0.11619302
50	0xbf1251ce	-0.57156074
51	0xbf035d83	-0.5131456
52	0x3e94fb21	0.29097846
53	0x3e990844	0.2988912
54	0xbf8712ff	-1.0552672
55	0x3de9a9bb	0.11409327
56	0x3f883c6f	1.0643443
57	0x3e85b62d	0.26115552
58	0x3f088bc3	0.5333826
59	0x3e73543a	0.23762599
60	0x3f16b774	0.5887368
61	0x3cf5c221	0.029999794
62	0xbf215399	-0.63018185
63	0x3e2a0a93	0.16605596
64	0x3eb3a283	0.35084924
65	0x3f57251e	0.8404101
66	0x3edef6cb	0.43547663
67	0xbe35654b	-0.17714421
68	0xbf132d29	-0.57490784
69	0xbd629b9e	-0.05532419
70	0xbddb2d96	-0.10702054
71	0xbe274cd9	-0.16337909
72	0xbf8f3066	-1.1186645
73	0x3e1b03bb	0.15138142
74	0x3e992d4b	0.29917368
75	0x3e56f566	0.2099205
76	0xbe5aa575	-0.2135218
77	0x3e696018	0.22790563
78	0x3d28e271	0.041231576
79	0xbf676d34	-0.90401006
80	0x3f01b2a0	0.50663185
81	0xbea3261a	-0.31865007
82	0xbf7b13cb	-0.98077077
83	0xbfb7446c	-1.4317756
84	0x3e0f823b	0.14014523
85	0xbf3037e8	-0.68835306
86	0x3ea3e87b	0.32013306
87	0x3d8a1262	0.067417875
88	0xbca39b66	-0.01997156
89	0x3ee47d24	0.44626725
90	0xbf3ee36d	-0.74565774
91	0xbf031384	-0.51201653
92	0x3e1f64e8	0.15565836
93	0x3f42bc7b	0.7606885
94	0x3cf8eed6	0.030387323
95	0xbeffef6d	-0.49987355
96	0x3e9a5e0c	0.30149877
97	0x3ed50023	0.41601667
98	0xbeb41b57	-0.3517711
99	0x3f10e6b5	0.5660203
100	0xbeafafb0	-0.34313726
101	0xbec3a636	-0.38212746
102	0x3f29a2f2	0.6626426
103	0x3eba0267	0.36329958
104	0x3f0ecacc	0.55778193
105	0xbd920a9d	-0.071309306
106	0xbefdaa02	-0.49543768
107	0xbf7eeea6	-0.995829
108	0xbf63b215	-0.88943607
109	0x3d943d6e	0.07238279
110	0x3e45b6d8	0.1930803
111	0x3f3b9e0b	0.7328803
112	0x3e113065	0.14178617
113	0xbe7a6d66	-0.24455795
114	0x3f089345	0.53349715
115	0xbda7cad8	-0.08192986
116	0x3de8de23	0.11370494
117	0x3f67b6a6	0.90513074
118	0xbe1fc942	-0.15604118
119	0x3f2253b3	0.63408965
120	0xbf0254ae	-0.5091046
121	0xbf51a5b3	-0.8189346
122	0xbe1d98e8	-0.1539036
123	0xbed84c9b	-0.42245945
124	0x3eec02a1	0.46095756
125	0x3e0676d4	0.13131267
126	0x3f3820e2	0.71925175
127	0x3cb6df4c	0.022323273
128	0x3d2f1747	0.04274681
129	0x3f3ff769	0.7498689
130	0x3f315533	0.6927063
131	0x3f1225b6	0.5708879
132	0x3d3177ed	0.04332726
133	0x3e77eed0	0.24212193
134	0xbe75f536	-0.24019322
135	0xbf340b2b	-0.7032954
136	0x3e0471fc	0.12934107
137	0xbdb6c0d8	-0.08923501
138	0x3e3ce77d	0.18447681
139	0x3f330035	0.6992219
140	0x3ecc57fa	0.3991087
141	0x3e81c255	0.25343576
142	0xbf47b11a	-0.7800461
143	0xbeb610e8	-0.35559773

bias f4 [16]
0	0x3ea989b5	0.33112875
1	0x3ec86e76	0.39146775
2	0x3e9a04a9	0.3008168
3	0x3dccee3d	0.10006378
4	0xbd6901ef	-0.05688661
5	0x3ea2e8a0	0.31818104
6	0x3ececb0a	0.40389282
7	0x3edac99b	0.42731938
8	0x3f0456cc	0.5169494
9	0x3f1decbb	0.6168935
10	0xbe0b3cae	-0.13597366
11	0xbd3a45c0	-0.045476675
12	0x3de8e8ab	0.11372503
13	0xbed07389	-0.40713146
14	0xba88d187	-0.001043842
15	0x3dc3325f	0.09531092

weight f4 [16, 16]
0	0x3c0b5440	0.0085039735
1	0x3f5a24fa	0.8521267
2	0xbef74953	-0.4829813
3	0x3e7be27c	0.24598116
4	0xbcd6d28d	-0.026223445
5	0xbf160eb6	-0.586162
6	0x3ee13417	0.43985054
7	0xbe67e5d0	-0.2264626
8	0x3dbe94f7	0.093057565
9	0xbf91c696	-1.1388729
10	0x3f324afe	0.6964568
11	0xbe27163a	-0.16317073
12	0x3f17f58e	0.5935906
13	0xbe5c8dff	-0.21538542
14	0xbdcd7639	-0.10032315
15	0x3e447965	0.19186933
16	0xbe8ed89c	-0.27899635
17	0x3f7d778e	0.9901055
18	0xbf705642	-0.9388162
19	0xbe0df67c	-0.13863558
20	0x3f1abb61	0.6044217
21	0xbec8fb8e	-0.3925442
22	0x3ea02b5a	0.31283075
23	0x3eaf1684	0.34196866
24	0x3f0f544c	0.55988
25	0xbf16ad5e	-0.5885829
26	0x3e4392ab	0.19098918
27	0xbec092d4	-0.3761202
28	0x3f0877af	0.5330762
29	0xbeb93c15	-0.3617865
30	0x3eb9d489	0.36294964
31	0x3eb09641	0.34489635
32	0x3f0df9fc	0.5545957
33	0x3eac0478	0.3359716
34	0xbf7e785f	-0.9940242
35	0x3e3d1444	0.18464762
36	0x3e56d8da	0.2098116
37	0xbf5bcd6d	-0.8586033
38	0x3f0db2d0	0.5535097
39	0x3ee9ee68	0.45689702
40	0x3f2576ee	0.646346
41	0xbf2e6618	-0.6812453
42	0x3f1f3f80	0.6220627
43	0x3e620cb5	0.2207516
44	0x3f3c5e45	0.73581344
45	0xbeb8b079	-0.36072138
46	0x3e12f468	0.14351046
47	0x3e8be8cd	0.2732605
48	0x3f832020	1.0244179
49	0x3ec4768f	0.38371703
50	0xbf4c499b	-0.79799813
51	0xbf15a9f4	-0.5846245
52	0xbf802466	-1.0011108
53	0x3f816304	1.0108342
54	0x3ea43113	0.3206869
55	0x3ebec149	0.3725684
56	0x3f0c38b2	0.5477401
57	0xbdcfcfa6	-0.10147028
58	0xbe7eb7f1	-0.24874856
59	0xbf754dc3	-0.9582178
60	0xbeb1be78	-0.3471563
61	0xbf657f84	-0.896477
62	0xbea8bea4	-0.32957947
63	0x3f1d8a5d	0.6153925
64	0xbee6a8e4	-0.45050728
65	0xbdef5b52	-0.1168734
66	0x3f76d34b	0.9641616
67	0xbf2fa783	-0.6861498
68	0x3f060b46	0.5236095
69	0x3fa994cc	1.3248534
70	0xbf615db8	-0.8803363
71	0xbf59d887	-0.8509602
72	0x3f15d9c6	0.5853542
73	0x3fad07dd	1.3518025
74	0x3d8d0916	0.06886499
75	0x3f6ee0d8	0.93311834
76	0xbe58850e	-0.21144506
77	0x3da946a1	0.082654245
78	0x3ee737fc	0.451599
79	0x3ebe9f28	0.37230802
80	0x3e085e73	0.1331728
81	0x3f69f2b3	0.91385955
82	0xbe87c0ab	-0.26514181
83	0x3f119225	0.56863624
84	0x3ef619b8	0.48066497
85	0xbf1c77b0	-0.6112013
86	0x3e8095be	0.25114244
87	0x3eb2c6e1	0.34917358
88	0x3ef072e0	0.46962643
89	0xbe3415b2	-0.17586401
90	0x3f244fbc	0.64184165
91	0x3edd193d	0.43183318
92	0x3ba48f07	0.005021933
93	0xbeebe389	-0.46072033
94	0x3e14715c	0.14496368
95	0x3f35d2a5	0.71024543
96	0x3ee01118	0.43763041
97	0x3f2e619e	0.681177
98	0xbeb47491	-0.35245183
99	0x3ba9ba1d	0.005179657
100	0x3e0f0e87	0.13970385
101	0xbe781b52	-0.24229172
102	0x3eaa0c51	0.33212522
103	0x3f08c247	0.53421444
104	0x3e7e4fb7	0.24835096
105	0xbed0f46e	-0.40811485
106	0x3f2b0ae4	0.6681349
107	0x3c1cc2ba	0.009567911
108	0x3d39f16a	0.045396246
109	0xbf39c451	-0.7256518
110	0x3d25245e	0.040317886
111	0x3db32ab8	0.08748382
112	0x3eb5b841	0.35492137
113	0x3f5d8cbb	0.8654286
114	0xbf473b38	-0.77824736
115	0x3f0e4691	0.55576426
116	0x3e388d9a	0.18022767
117	0xbf13f425	-0.5779441
118	0x3f384529	0.7198053
119	0x3ed141f4	0.4087063
120	0xbe373cbc	-0.17894262
121	0xbf7dd09f	-0.99146456
122	0x3eec20b9	0.46118715
123	0x3e147c3c	0.14500517
124	0xbd1b4683	-0.037909042
125	0xbd858b55	-0.06520716
126	0x3f2f822a	0.6855799
127	0xbdce1615	-0.100628056
128	0xbf62dd6e	-0.88619125
129	0x3f99e5f4	1.2023301
130	0xbf7c4a19	-0.98550564
131	0x3e015147	0.12628661
132	0x3f4c51df	0.79812425
133	0xbf68e9ea	-0.90981925
134	0x3f381ec1	0.71921927
135	0xbf42ae6e	-0.7604741
136	0x3e82c1a2	0.25538355
137	0xbf693d43	-0.911091
138	0x3eed6f7f	0.46374127
139	0xbd208119	-0.039185617
140	0x3d99d172	0.07510652
141	0xbef01982	-0.4689446
142	0xbf02828a	-0.50980437
143	0x3cac37e6	0.021022748
144	0x3f4b4634	0.79403996
145	0x3f89fca7	1.0780228
146	0x3e32cc19	0.1746067
147	0x3f2a8a83	0.666176
148	0x3e35635d	0.17713685
149	0xbe02b83b	-0.12765591
150	0x3f06fc04	0.52728295
151	0x3f0474dc	0.51740813
152	0xbea2c2f1	-0.31789353
153	0x3dbf69e2	0.093463674
154	0xbd14351a	-0.036183454
155	0x3ed64cef	0.4185557
156	0x3ecbe05e	0.39819616
157	0xbe7a9985	-0.24472626
158	0x3e7967d3	0.24356012
159	0xbe2d37d2	-0.16915825
160	0xbda78124	-0.081789285
161	0x3f574cc4	0.8410151
162	0xbf7d900f	-0.9904794
163	0x3efce285	0.4939157
164	0x3f3844ac	0.71979785
165	0xbf1fc484	-0.62409234
166	0x3f0658d7	0.5247931
167	0xbe908185	-0.28223816
168	0x3f1d27e5	0.61389
169	0xbf37b82a	-0.7176539
170	0x3f3f7055	0.7478078
171	0x3e3e18e7	0.18564187
172	0x3edad64f	0.4274163
173	0xbed0f8f8	-0.40814948
174	0xbddc334f	-0.10751974
175	0x3ed48f40	0.4151554
176	0x3e9e9939	0.30976275
177	0x3eea1dcc	0.45725858
178	0xbf82956e	-1.0201852
179	0x3ec40258	0.38283038
180	0x3f3e4ff8	0.7434077
181	0xbf732779	-0.94982105
182	0x3e38dac1	0.18052198
183	0x3f0da5cb	0.55331105
184	0x3e3600ba	0.17773715
185	0xbedc5a91	-0.43037847
186	0x3e211834	0.15731889
187	0xbd010921	-0.031502847
188	0xbdcceca2	-0.100060716
189	0xbf25fcab	-0.64838666
190	0x3e7559bf	0.23960017
191	0x3f092aa8	0.53580713
192	0xbe5ab052	-0.21356323
193	0x3df0a227	0.11749678
194	0x3f8de13e	1.1084363
195	0xbf584127	-0.84474415
196	0x3eb19729	0.3468564
197	0x3f91fce7	1.1405305
198	0x3e388821	0.18020679
199	0xbf87b19e	-1.060108
200	0xbfac9057	-1.3481549
201	0x3f55d8e3	0.8353407
202	0x3eaebcf8	0.34128547
203	0xbd4db4f6	-0.050221406
204	0xbebf7f99	-0.37402037
205	0x3f1303b1	0.5742751
206	0x3f11b603	0.5691835
207	0xbed1f444	-0.41006672
208	0x3eb9aed9	0.3626621
209	0xbf83c296	-1.0293758
210	0x3f98c77f	1.1935881
211	0x3ee48839	0.4463518
212	0xbeefb581	-0.46818164
213	0x3f29bea4	0.6630652
214	0xbf3b3927	-0.7313408
215	0x3e65f6ce	0.2245743
216	0xbf8b0c95	-1.0863215
217	0x3fa34695	1.2755915
218	0x3cb8539f	0.022500811
219	0x3f990684	1.1955113
220	0xbec5e5b6	-0.38651818
221	0x3f841528	1.0318956
222	0x3faa3f5d	1.3300587
223	0x3e9e3cad	0.30905667
224	0x3f8606b1	1.0470792
225	0xbe895eef	-0.2683024
226	0x3fa54d94	1.29143
227	0x3e5c5ce2	0.21519807
228	0xbe03623d	-0.12830444
229	0x3f4b58af	0.79432195
230	0xbe9b605d	-0.30346957
231	0x3ed4f8f8	0.41596198
232	0xbe87d9b5	-0.26533285
233	0x3fa94caf	1.3226527
234	0xbe5bf32f	-0.21479486
235	0x3f85335a	1.0406296
236	0xbf046e72	-0.51731026
237	0x3f574793	0.8409359
238	0x3f0d069a	0.550882
239	0xbe8b27cf	-0.2717881
240	0xbe47a900	-0.19498062
241	0x3f3897ef	0.7210683
242	0xbf04427b	-0.5166394
243	0x3e142f14	0.14471084
244	0x3ec0f96a	0.37690288
245	0xbe8912c2	-0.26772124
246	0x3ef3e0e3	0.47632512
247	0xbc52d0c9	-0.012867161
248	0x3f015843	0.505253
249	0xbf4f9099	-0.81080014
250	0x3e5f6684	0.2181645
251	0x3d10817c	0.035279736
252	0x3f3261c3	0.6968042
253	0xbd024027	-0.03179946
254	0x3e822f25	0.25426593
255	0x3f0d4e9e	0.55198085

bias f4 [16]
0	0x3ceb3cbd	0.028715486
1	0x3d734b6c	0.0593981
2	0x3decf2ea	0.1156977
3	0x3f272967	0.6529755
4	0x3ebdbbfe	0.3705749
5	0x3e164008	0.14672863
6	0x3e332c76	0.17497429
7	0x3df1888a	0.11793621
8	0x3d6cef35	0.057845313
9	0x3e7ecbc6	0.24882421
10	0x3cbb8de9	0.022894816
11	0x3e18cb7a	0.1492137
12	0xbcc72a16	-0.02431206
13	0x393c2bff	0.00017945467
14	0x3e15c0b6	0.14624295
15	0x3e041d81	0.1290188

weight f4 [16, 16]
0	0xbecfe73a	-0.406061
1	0xbde54fc6	-0.11196856
2	0xbe21a8f4	-0.15787107
3	0xbf8836d3	-1.0641731
4	0x3f902c5e	1.126354
5	0x3d3bc76c	0.04584448
6	0x3e9966e8	0.29961324
7	0xbe388cb8	-0.1802243
8	0xbf9724e5	-1.1808134
9	0x3f4e0a0d	0.80484086
10	0xbdd0f598	-0.10203093
11	0xbdc22c93	-0.09481158
12	0x3fa5ba88	1.294755
13	0x3fbf1d45	1.4930807
14	0x3fa99cd4	1.3250985
15	0xbd869e8a	-0.06573208
16	0x3f1404d2	0.57819855
17	0x3ef1957b	0.47184357
18	0x3e27910c	0.16363925
19	0x3fc990a5	1.5747267
20	0xbf7c9c28	-0.98675776
21	0x3f175270	0.59110165
22	0x3f50ff25	0.8163932
23	0x3e4e6b07	0.20158015
24	0x3f41ca5f	0.7569942
25	0x3ef12a8d	0.47102776
26	0x3e835762	0.25652605
27	0x3f3cb7a4	0.73717713
28	0xbf877021	-1.0581094
29	0xbf1a661d	-0.6031206
30	0xbf689f7a	-0.9086834
31	0x3e644139	0.22290505
32	0x3f3a807e	0.72852314
33	0x3f02e5bf	0.51131815
34	0x3e7a3de5	0.24437673
35	0x3fa48f9e	1.2856328
36	0xbfb2f3c3	-1.398064
37	0x3f187b89	0.595635
38	0x3f077c3b	0.52923936
39	0x3eb4593b	0.35224327
40	0x3f83e6e9	1.0304843
41	0x3f2c173d	0.6722296
42	0x3dcfaccd	0.10140381
43	0x3de64072	0.11242761
44	0xbf87883a	-1.0588448
45	0xbf8a1276	-1.0786884
46	0xbf87dc4f	-1.0614108
47	0x3e9c4976	0.30524796
48	0x3ec6e075	0.38843122
49	0x3d54df45	0.05197074
50	0x3e8e4655	0.27788034
51	0x3f7be247	0.98392147
52	0xbf90d898	-1.1316099
53	0x3ed45392	0.4147001
54	0x3edd7286	0.43251437
55	0x3eb2e2d7	0.3493869
56	0x3f8bec55	1.0931498
57	0xbca840ba	-0.020538677
58	0x3f28651e	0.6577929
59	0x3f102efe	0.56321704
60	0xbf2cbad5	-0.67472583
61	0xbf99e186	-1.2021949
62	0xbf7aaf76	-0.9792398
63	0x3ec8e89d	0.3923997
64	0xbf539c41	-0.826603
65	0xbdafe501	-0.08588601
66	0xbf3a632a	-0.7280756
67	0x3f41f5d2	0.7576572
68	0x3e9c62c7	0.3054411
69	0xbc101bc0	-0.008795679
70	0x3eadeda7	0.33970377
71	0x3d82c555	0.06385294
72	0xbe271873	-0.1631792
73	0x3f3f5e3c	0.74753165
74	0xbf802ded	-1.0014015
75	0xbe3766e6	-0.17910346
76	0x3cde5e3c	0.027144544
77	0x3f42e1b3	0.7612564
78	0x3f2eba39	0.68252903
79	0xbe8b9b48	-0.27266908
80	0x3ecfe49f	0.40604112
81	0x3ee5acca	0.4485839
82	0x3f0f67be	0.56017673
83	0x3f6107e1	0.8790265
84	0xbf9112d7	-1.1333874
85	0x3f03d8b6	0.5150255
86	0x3e83f134	0.2576996
87	0x3f619307	0.8811497
88	0x3f14bc17	0.580995
89	0x3f4f9925	0.81093055
90	0x3e8d1433	0.27554473
91	0x3f0c6b06	0.54850805
92	0xbf72e2df	-0.9487743
93	0xbf09af01	-0.5378266
94	0xbf292e1c	-0.6608598
95	0x3e95bca5	0.29245487
96	0xbea0144c	-0.31265485
97	0x3d9537e1	0.07286049
98	0xbe89b0ce	-0.26892704
99	0xbf85c548	-1.045083
100	0x3fae4ff1	1.3618146
101	0xbcf37578	-0.0297191
102	0xbcecb59b	-0.02889519
103	0x3e099305	0.1343499
104	0xbfa1673d	-1.2609631
105	0x3f42c3ac	0.7607982
106	0xbee95a2e	-0.45576614
107	0x3d006ee1	0.031355742
108	0x3fa72a4c	1.3059783
109	0x3fbbc0cf	1.4668216
110	0x3fa5f406	1.2965095
111	0x3e72feb4	0.23729974
112	0x3f37967b	0.7171399
113	0x3f3f4fe0	0.74731255
114	0x3ed14d9d	0.40879527
115	0x3f86f46c	1.0543342
116	0xbfa51675	-1.2897478
117	0xbcc70d96	-0.02429847
118	0x3f4e9c31	0.8070708
119	0x3ecc0d07	0.3985369
120	0x3f618ac8	0.8810239
121	0x3e2036d7	0.1564592
122	0x3e87f415	0.26553407
123	0x3eb5a0f5	0.35474363
124	0xbf92e63a	-1.147651
125	0xbf8667fc	-1.0500484
126	0xbf90c4ec	-1.1310096
127	0x3f0505a9	0.5196176
128	0xbf6191d5	-0.8811315
129	0xbf28178c	-0.6566093
130	0xbf82dd35	-1.0223757
131	0xbdd5645e	-0.10419534
132	0x3e621277	0.22077356
133	0xbeab65ad	-0.3347601
134	0x3f007d23	0.50190943
135	0xbe8b2e95	-0.27183977
136	0x3e5a59e0	0.21323347
137	0x3f126aaf	0.57194036
138	0xbec215ef	-0.3790736
139	0x3ec3598e	0.38154262
140	0x3f2568c8	0.6461301
141	0x3f55b9ac	0.8348644
142	0x3f246b4e	0.64226234
143	0xbe2b3472	-0.16719225
144	0x3f01d982	0.50722516
145	0x3ede80a0	0.43457508
146	0x3f4bbf9c	0.7958925
147	0x3f4038de	0.7508677
148	0xbfb6fe59	-1.4296371
149	0x3e4faa62	0.2027984
150	0x3f69fea9	0.91404206
151	0x3d618799	0.055060957
152	0x3efc22ed	0.49245396
153	0x3ed5c9e1	0.41755584
154	0x3e4d33f6	0.20039353
155	0x3f1ff91b	0.6248948
156	0xbf6cd911	-0.9251872
157	0xbf00b419	-0.5027481
158	0xbf2d0a1e	-0.6759356
159	0x3e1e8e9a	0.15484086
160	0x3db9b0ae	0.09066902
161	0x3f555bc1	0.8334313
162	0x3ebe6e76	0.3719365
163	0x3f9deade	1.2337301
164	0xbfb9f8e5	-1.4529082
165	0x3ea7f51d	0.32804194
166	0x3e472538	0.19447792
167	0x3eeb0bb6	0.45907372
168	0x3f543676	0.828956
169	0x3dbc0530	0.09180677
170	0x3f23c4ca	0.6397215
171	0x3f166562	0.5874845
172	0xbeff1812	-0.49823052
173	0xbf899949	-1.0749904
174	0xbf03ac9f	-0.51435274
175	0x3f17a36e	0.5923375
176	0xbf627701	-0.88462836
177	0x3ec5c66e	0.38627952
178	0xbf0b9cbb	-0.54536027
179	0x3eb0e725	0.3455135
180	0xbe9f087b	-0.31061158
181	0xbe9d31d1	-0.3070207
182	0x3cf29e17	0.029616399
183	0xbd46592a	-0.048424877
184	0xbe9c82d2	-0.30568558
185	0x3f14ba75	0.5809701
186	0xbf538f40	-0.8264046
187	0x3db367d5	0.08760039
188	0x3d59b3c7	0.053149965
189	0x3f993f05	1.1972357
190	0x3f6d356c	0.9265964
191	0xbf143104	-0.5788729
192	0x3f313fb8	0.6923785
193	0x3f06fa0a	0.5272528
194	0x3ecf30ee	0.40467018
195	0x3f114e95	0.5676053
196	0xbf7b3526	-0.98127973
197	0x3ef795ed	0.48356572
198	0x3ee66763	0.45000753
199	0x3f3d4d2d	0.73945886
200	0x3e76e380	0.24110222
201	0x3f19ef19	0.6013046
202	0x3edfb7aa	0.43694812
203	0x3f4ea627	0.8072228
204	0xbecf9da6	-0.40549964
205	0xbf59cdbf	-0.8507957
206	0xbf1d7de9	-0.6152025
207	0x3f159cfc	0.58442664
208	0xbec684da	-0.38773233
209	0xbe9beb16	-0.30452794
210	0x3e73406d	0.23755045
211	0xbf72b9ef	-0.9481496
212	0x3f8ef71e	1.1169164
213	0x3e5f31ae	0.21796295
214	0x3e802c0c	0.25033605
215	0xbddefd40	-0.10888147
216	0xbfa8541f	-1.3150672
217	0x3f93ba3d	1.154121
218	0xbd070491	-0.03296334
219	0xbef6f0fe	-0.48230737
220	0x3f727d53	0.9472248
221	0x3fc07f84	1.5038915
222	0x3f8465f8	1.0343618
223	0xbea0c88c	-0.31403005
224	0x3e0a81d2	0.13526085
225	0x3df9e50e	0.12201892
226	0x3efaeb48	0.4900763
227	0x3f9ee3f0	1.2413311
228	0xbf99dbdd	-1.2020222
229	0xbcf25b57	-0.02958457
230	0x3f029de5	0.5102218
231	0x3f13277b	0.5748212
232	0x3f870dc0	1.0551071
233	0x3f4420bd	0.76612455
234	0x3cc9e415	0.02464489
235	0x3f1c5d18	0.6107955
236	0xbf427a8e	-0.75968254
237	0xbf4c5e46	-0.7983135
238	0xbf41b8c9	-0.75672585
239	0x3f3d0508	0.738358
240	0x3f4ccb77	0.7999796
241	0x3f55b9b2	0.83486474
242	0x3ec8147e	0.39078134
243	0x3f70e71f	0.9410266
244	0xbf808c20	-1.0042763
245	0x3d0feba5	0.035136838
246	0x3f2c637d	0.6733931
247	0x3e7e077e	0.24807546
248	0x3f3a8f93	0.72875327
249	0x3cf6fbd1	0.030149372
250	0x3f59542c	0.8489406
251	0x3f2baa01	0.6705628
252	0xbf4c0485	-0.79694396
253	0xbf9abdb2	-1.208914
254	0xbf944f08	-1.1586618
255	0x3ec79a21	0.3898478

bias f4 [16]
0	0x3cf6b5db	0.030116012
1	0x3e833708	0.25627923
2	0x3e3960c6	0.18103322
3	0x3e09b47c	0.13447756
4	0x3f76ceee	0.964095
5	0x3e658c74	0.2241686
6	0x3d946047	0.07244926
7	0x3e227667	0.1586548
8	0x3f45e5d0	0.7730379
9	0x3e347e0c	0.17626208
10	0x3e0b52c7	0.13605796
11	0x3f38df16	0.722154
12	0x3e1980b4	0.14990503
13	0x3e4b799b	0.19870608
14	0x3e159c16	0.14610323
15	0x3dff77c0	0.124740124

weight f4 [16, 16]
0	0xbf95a9e5	-1.1692473
1	0x3f32fd9e	0.6991824
2	0x3f887712	1.0661337
3	0x3f1540d9	0.58302075
4	0x3fab5528	1.3385363
5	0x3f695266	0.91141355
6	0xbf09b615	-0.5379346
7	0x3f124cfe	0.5714873
8	0x3f51bd44	0.8192942
9	0x3ed94971	0.42438844
10	0x3f0f62bc	0.5601003
11	0x3fa6d908	1.3034983
12	0x3f531c0d	0.8246468
13	0xbe80471e	-0.25054258
14	0x3f88daae	1.0691736
15	0x3e887b1f	0.26656434
16	0xbe93c086	-0.2885782
17	0xbdbb5f75	-0.09149066
18	0x3e75dc86	0.24009904
19	0xbe1e102c	-0.15435857
20	0x3c524a49	0.012835094
21	0x3e3954ef	0.18098806
22	0xbdfb9e8e	-0.12286101
23	0x3e3b8194	0.18311149
24	0xbe50aeff	-0.20379256
25	0x3e04d7eb	0.12972991
26	0x3d791be0	0.0608176
27	0x3e7a85a3	0.24465041
28	0xbe5b68ff	-0.21426772
29	0xbef20693	-0.4727064
30	0xbea045ee	-0.31303352
31	0xbe1217d3	-0.142669
32	0xbde136e3	-0.10996797
33	0xbe8a0116	-0.26953954
34	0x3f21e090	0.6323328
35	0x3e40a042	0.18811134
36	0x3e1cf961	0.15329506
37	0xbf62448d	-0.8838585
38	0x3eb634d1	0.3558717
39	0x3e91217f	0.28345868
40	0x3f8b088c	1.0861983
41	0xbf9fc091	-1.2480642
42	0x3eb3de93	0.35130748
43	0x3f912f55	1.134257
44	0xbf446e9f	-0.76731294
45	0xbeb8aa94	-0.3606764
46	0xbf352aa2	-0.7076818
47	0x3d209fde	0.03921496
48	0xbfadb00d	-1.3569351
49	0x3f291fb4	0.66064
50	0x3ebe3b98	0.3715484
51	0x3f73c0c5	0.9521602
52	0x3f23a52a	0.63923895
53	0x3f4b06b5	0.7930711
54	0xbfbf197b	-1.4929651
55	0x3f264ecc	0.64963984
56	0xbdf087a1	-0.11744619
57	0x3f478dbe	0.77950656
58	0x3f7ae872	0.98010933
59	0x3f12a840	0.5728798
60	0x3f59ec28	0.8512597
61	0xbfae896a	-1.3635685
62	0x3f8a710a	1.0815747
63	0x3ef62c63	0.4808074
64	0xbf87f11c	-1.0620456
65	0x3f773683	0.96567553
66	0x3f72d7d3	0.9486057
67	0x3f730586	0.94930303
68	0x3f3b8b31	0.73259264
69	0x3f457f51	0.77147394
70	0xbf7dfe7b	-0.9921643
71	0x3f7b3b93	0.9813778
72	0x3efd15ee	0.49430794
73	0x3eeb552b	0.45963416
74	0x3f1ebb9f	0.6200504
75	0x3f9a95bb	1.2076944
76	0x3ee4e3ba	0.44704992
77	0xbfb4ccc1	-1.4124986
78	0x3ef30c9e	0.47470564
79	0x3f60c3e2	0.87798893
80	0xbfbe6973	-1.487593
81	0x3f6a2523	0.91462916
82	0x3f77e2a3	0.96830195
83	0x3f832280	1.0244904
84	0x3f7d6375	0.98979884
85	0x3f18c223	0.5967123
86	0xbf9541b5	-1.1660677
87	0x3f39fa92	0.72647965
88	0x3ee3b186	0.44471377
89	0x3f533574	0.8250344
90	0x3f0c070c	0.5469825
91	0x3fa6e705	1.3039252
92	0x3f29c52b	0.6631648
93	0xbf876a44	-1.0579305
94	0x3f83da59	1.030101
95	0x3e4cd37d	0.20002551
96	0xbf807921	-1.0036966
97	0x3f7c152f	0.98469824
98	0x3f62e731	0.8863402
99	0x3f54b87d	0.83094007
100	0x3f5dc25a	0.8662468
101	0x3f163ea6	0.58689344
102	0xbfad6743	-1.3547138
103	0x3f549e02	0.830536
104	0x3eb598a8	0.3546803
105	0x3f3637eb	0.71179074
106	0x3f285cee	0.657668
107	0x3ea8aa53	0.32942447
108	0x3f416c46	0.7555584
109	0xbfb3eeab	-1.4057211
110	0x3f4b26f3	0.79356307
111	0x3f1111c4	0.56667733
112	0x3e6bd316	0.23029742
113	0x3eaa47bd	0.33257857
114	0xbde0f669	-0.10984499
115	0x3e900550	0.28129053
116	0x3e327506	0.17427453
117	0xbeae4978	-0.34040427
118	0x3cf4b078	0.029869303
119	0x3c62f622	0.013852628
120	0xbec2cc64	-0.38046563
121	0xbee63738	-0.44964004
122	0x3e34544d	0.17610283
123	0xbef5d8d0	-0.48016977
124	0xbeeb0635	-0.45903173
125	0xbe05d1f8	-0.13068378
126	0x3d0e0d89	0.034680877
127	0x3dfd7427	0.1237567
128	0x3f6e920e	0.9319161
129	0xbee6f6fa	-0.45110303
130	0xbf439152	-0.76393616
131	0xbf8106f5	-1.0080248
132	0x3f6dc43c	0.92877555
133	0x3e0aa6c8	0.13540184
134	0x3f9a82c2	1.2071154
135	0xbf6e042b	-0.9297511
136	0x3f781caf	0.9691877
137	0xbf192e1c	-0.5983598
138	0xbf83dfcc	-1.0302672
139	0x3f49e624	0.7886679
140	0xbbe88ccb	-0.007096862
141	0x3f7cca42	0.9874612
142	0xbf63fc83	-0.8905718
143	0xbf856954	-1.0422769
144	0xbfcf96f6	-1.6217945
145	0x3f143d53	0.57906073
146	0x3f0ae05d	0.542486
147	0x3f2f18ad	0.6839703
148	0x3f1d89e7	0.6153855
149	0x3f6eddbd	0.93307096
150	0xbf8bafb8	-1.0913
151	0x3f4373ce	0.7634858
152	0x3e54a44b	0.20765798
153	0x3f5aebf5	0.8551629
154	0x3f600ef1	0.875228
155	0x3f8a657a	1.0812218
156	0x3f6e358a	0.93050444
157	0xbfcc4c19	-1.5960723
158	0x3f8f5c1a	1.1199982
159	0x3f4350bd	0.7629507
160	0xbf89f1a0	-1.0776863
161	0x3ecdff2e	0.4023375
162	0x3f0efd21	0.55854994
163	0x3f7c2b53	0.9850361
164	0x3ef9b468	0.48770452
165	0x3ec02f15	0.3753592
166	0xbfabc03e	-1.3418043
167	0x3ed6faae	0.41988128
168	0xbe5905b5	-0.21193583
169	0x3f7cab61	0.98699003
170	0x3f25ca3e	0.6476172
171	0x3f406401	0.75152594
172	0x3f56ea3a	0.8395115
173	0xbfad4a31	-1.3538266
174	0x3f297874	0.6619942
175	0x3f1e6d71	0.61885744
176	0x3ed547a0	0.41656208
177	0xbf818874	-1.0119767
178	0xbf82b41c	-1.0211215
179	0xbccbb3ff	-0.024866102
180	0xbe62f11e	-0.22162291
181	0xbfda24a1	-1.7042428
182	0x3e7790b7	0.24176298
183	0xbf27a7a1	-0.65490156
184	0x3f90294c	1.1262603
185	0xbfaad0b2	-1.3344939
186	0xbece6e47	-0.4031851
187	0x3f51b1cb	0.81911916
188	0xbf84cf4e	-1.0375764
189	0x3e416f09	0.18890013
190	0xbfae9285	-1.3638464
191	0x3ba8e3bb	0.0051541007
192	0xba2b6bd2	-0.0006539199
193	0x3664cbaa	3.4093196e-06
194	0x1b96ab40	2.4926086e-22
195	0xb996572a	-0.00028675172
196	0x26249634	5.7102493e-16
197	0x39967039	0.00028693842
198	0xb909bdfc	-0.00013136113
199	0x9aa60c25	-6.867561e-23
200	0x9e30c51a	-9.358122e-21
201	0x1fcf1e35	8.7717883e-20
202	0x181e55a8	2.0464267e-24
203	0xba0d9fac	-0.0005402516
204	0xbb38cf96	-0.0028199903
205	0xbb3066f8	-0.0026916843
206	0x9638fd9d	-1.4943428e-25
207	0xb4d2364f	-3.9155063e-07
208	0x3e7624af	0.24037431
209	0xbeeabb6b	-0.45846114
210	0xbe810d09	-0.25205258
211	0xbebbefb8	-0.36706328
212	0xbd0002b7	-0.03125259
213	0x3e33157c	0.17488664
214	0xbedb26eb	-0.4280313
215	0xbdcba037	-0.09942668
216	0x3dfdeaf2	0.12398328
217	0xbe3d8218	-0.18506658
218	0x3e80b0c2	0.25134856
219	0xbd37143e	-0.04469704
220	0x3e370c3b	0.1787576
221	0xbe321a3a	-0.17392817
222	0x3d3f95fc	0.046773896
223	0xbee6f6c2	-0.45110136
224	0x3f7ea3b1	0.99468523
225	0x3d691376	0.056903325
226	0x3e268215	0.1626056
227	0xbd8ed577	-0.06974309
228	0xbf6f67f2	-0.9351798
229	0xbe94bbf4	-0.29049647
230	0x3fa02ec8	1.2514277
231	0xbea01873	-0.31268653
232	0xbf4a70f3	-0.79078597
233	0x3eb18f0b	0.34679446
234	0xbee02397	-0.43777153
235	0xbf104658	-0.56357336
236	0x3f124c2f	0.57147497
237	0x3f519445	0.81866866
238	0x3dda77b1	0.106673606
239	0xbe92d224	-0.2867595
240	0xbf4eb923	-0.80751246
241	0x3f2d1f5d	0.6762598
242	0x3f036f2f	0.5134153
243	0x3f714e84	0.9426043
244	0x3f9c296a	1.2200139
245	0x3f755528	0.95833063
246	0xbf1b111f	-0.60573
247	0x3f6cbc26	0.9247459
248	0x3fb56dc3	1.4174122
249	0x3f4ec501	0.80769354
250	0x3f8a5dee	1.0809915
251	0x3f65e888	0.8980794
252	0x3f801839	1.0007392
253	0xbf19cca0	-0.6007786
254	0x3fa44fc6	1.2836845
255	0x3f62f2f2	0.88651955

bias f4 [16]
0	0x3e3c06d2	0.18361977
1	0xbd9533f4	-0.072853
2	0xbe1a1957	-0.15048729
3	0x3def4b9f	0.116843455
4	0x3e05de89	0.13073172
5	0x3e1a8025	0.15087946
6	0x3df21061	0.1181953
7	0xbd1df2bc	-0.038561568
8	0x3f3f18b8	0.7464709
9	0xbc356832	-0.011072205
10	0x3df3e98d	0.11909781
11	0xbe9bd519	-0.30436018
12	0x00000000	0.0
13	0xbd9a0a50	-0.07521498
14	0xbed96594	-0.4246031
15	0x3eb34281	0.35011676

weight f4 [1, 16]
0	0x3f5da08e	0.8657311
1	0xbe83ed87	-0.25767156
2	0xbf2a1e0b	-0.6645209
3	0x3f46aa61	0.7760373
4	0x3f8ea358	1.1143599
5	0x3f63d1b4	0.88991857
6	0x3f85a491	1.0440847
7	0xbf0861eb	-0.5327441
8	0x3fb6c571	1.4279004
9	0x3f40218b	0.7505118
10	0x3f9225e1	1.141781
11	0xbfc9e3ce	-1.5772645
12	0x1856abed	2.7745652e-24
13	0xbeee8b02	-0.4659043
14	0xbfa7521a	-1.307193
15	0x3f240879	0.6407543
