predictive_model/model.pth (torch, 9436 bytes, 9 tensors)

weight f4 [16, 9]
00000000: 23f5 26bc 6b83 68bd 3f1f ccbe d70f 643f
00000010: 1f53 193e b8f3 e03e 839c e83e e25f 0cbf
00000020: 9cce 1bbf 148d b6be 2557 1b3e c650 5d3f
00000030: c3b9 82bc 671f e13e e907 823e a26d 453e
00000040: 1285 e1bd 4f14 16bf c620 a53e 5dc3 6cbf
00000050: 303e dabf c920 c43d 7fb3 a6be afd1 9b3e
00000060: 4d1f 003f ece1 ae3e 42d6 f53e bb3b 9fbf
00000070: 1c92 0f3e a249 293e a274 80be 7402 103f
00000080: b9f8 8b3e 838d d23e 758a 27bf 0fa6 453e
00000090: 702b 60bf 7fad 98be aab6 77bd 9179 303f
000000a0: 33fc 42be 6bab 7a3d 77cc 85be 5832 1c3e
000000b0: 0955 f9bd a00b 743f d818 573f d4c5 d73e
000000c0: e357 a43e 519f 7abf cd2f 3e3f 1f8a 583e
000000d0: 1171 7a3e 1581 63bf ee8b afbe 5c16 43be
000000e0: 4ab4 4b3f e874 a03e 2620 703e 8de8 92bd
000000f0: cf13 72be e1bc bbbe 7419 3dbf 38f8 8abe
00000100: c2d1 083f 8684 9f3e f90f 0b3f b277 e4be
00000110: 087b 0dbf 3780 b63e 7b76 e9bd e3e4 5dbf
00000120: 1805 87bf eeb0 62be f825 d73e ae76 31be
00000130: 068e 0cbf a12c 70bf 1174 28be 794d a5be
00000140: ab7a 39bf 8ccb d63d 277e 4cbf 07d7 3fbf
00000150: 074b 703e 8063 9cbe 9d86 65bd 4c78 a6be
00000160: d08b f3be c369 70bf ffe1 b4be a8b3 943e
00000170: 4bcd 6b3f 1d7d 94bd 2192 7b3e a281 5b3e
00000180: 80f6 763e 613e 2e3d 5dd4 c3be 94f4 06bf
00000190: dfdf 1d3d 5b44 733f 550f 393f 94b6 233f
000001a0: 79a1 08be fff5 0c3f c9dd 70be 5fc9 37bd
000001b0: b64c 19be 4357 76bf 1d31 dfbf 7468 fabe
000001c0: 5612 c0bd 6336 43bf 655b bdbe 8e2a 4fbb
000001d0: 8298 493e e81e a03f d83c 223f 0e9a d73d
000001e0: 2757 ce3e 96f5 553f 28a3 913e dd34 bd3d
000001f0: 2483 e8be 296a 09bf bf1b 2cbf 3b94 233f
00000200: 6b2c 9a3f 5389 0c3e e25e a0be 2293 40be
00000210: 43c0 bb3c a9bf 64bc 3352 30bf a32f 9a3d
00000220: 5220 35be 107b 6b3f 86b1 543f ebd3 d7bd
00000230: 3ef6 bcbc bb34 0cbf 4a51 f9bd 7e89 47bd
-0.010190281 -0.056765955 -0.3986759 0.8908667 0.14973114 0.43935943 0.4543191 -0.54833806
-0.60862136 -0.3565451 0.15169962 0.86451375 -0.015957719 0.4396927 0.2539666 0.19280103
-0.11011709 -0.5862474 0.32251567 -0.924856 -1.7050228 0.09576566 -0.3255882 0.30433413
0.5004776 0.3415674 0.48015028 -1.2440103 0.1402058 0.16531995 -0.25088984 0.56253743
0.27338198 0.4112359 -0.65445644 0.19301628 -0.8756628 -0.29819867 -0.060476936 0.68935496
-0.19041519 0.061198633 -0.26132557 0.1525358 -0.12174422 0.9533024 0.84022284 0.42143118
0.32098302 -0.9789935 0.7429169 0.21146439 0.24457194 -0.8886884 -0.34286445 -0.19051498
0.79571974 0.31339192 0.23449764 -0.07173262 -0.23640369 -0.3666754 -0.73866963 -0.271425
0.53445065 0.31155795 0.5432125 -0.4462257 -0.55265856 0.35644695 -0.113995515 -0.8667738
-1.054843 -0.22137806 0.42021155 -0.17330429 -0.5490421 -0.938181 -0.16450526 -0.3228567
-0.724528 0.10488042 -0.79879993 -0.7493748 0.2346612 -0.30544662 -0.05603658 -0.32513654
-0.47567606 -0.9391138 -0.3532867 0.29043317 0.9211013 -0.07250426 0.24567463 0.2143617
0.2411747 0.042539958 -0.38247958 -0.52716947 0.03854358 0.9502618 0.7228902 0.6395047
-0.13342847 0.5506286 -0.23522104 -0.044869777 -0.14970669 -0.962269 -1.7436863 -0.48907816
-0.09378497 -0.7625486 -0.3698379 -0.0031611058 0.19687083 1.2509432 0.6337409 0.105274305
0.40300867 0.8357786 0.2844479 0.092385985 -0.45412552 -0.5367761 -0.6722984 0.63898057
1.2044805 0.1372426 -0.3132239 -0.18806127 0.022918826 -0.013961711 -0.68875426 0.07528617
-0.1768811 0.91984653 0.8308338 -0.10538467 -0.023066636 -0.5476796 -0.12173708 -0.048715107

bias f4 [16]
00000000: fc92 063e 98e6 c73d 78f4 1c3f 9a61 ed3e
00000010: c428 5dbe dcf4 62be a11d 1a3e 87b7 d6bd
00000020: 0d40 4c3e 2734 dd3e a334 a73e a66c 7d3d
00000030: 5706 ee3e 12fe 93be ea1a 143e 00b2 693e
0.13142008 0.09760779 0.6131053 0.46363527 -0.21597582 -0.22163719 0.15050365 -0.10484224
0.19946308 0.43203852 0.32657346 0.061871193 0.46489212 -0.28904778 0.14463392 0.22821808

weight f4 [16, 16]
00000000: b29b 8c3c 23b6 123f 2a2e 9bbf 3b29 333f
00000010: 3635 8d3f 3bdc 42bf 4ba0 723e 7fbb 84bd
00000020: 3e62 473f 3fad 3bbf d424 0f3f 4b72 923e
00000030: 9d4e a0bf e08a aabf 4d8e 4e3f e3b8 83be
00000040: b74e 8b3e b322 a2be acfa 45be cf0e 9b3d
00000050: 9173 c6be d2c6 50bc 6631 b5bd 9e7c 67bf
00000060: ac18 4bbf 71bd 0e3f 4737 7abf ac0f 2bbe
00000070: 4617 483e 91a5 82bf 0250 32bf 1e31 3c3f
00000080: e4c9 50bd d48b ee3e d923 4fbf 425d 043f
00000090: a356 1b3f 64f5 11bf 3960 473d a103 8a3e
000000a0: 2500 983f e912 74bf 1acd 4a3f fc0e 9c3e
000000b0: a9fc 58bf 0404 60bf 05c2 073f b2f2 ee3d
000000c0: 7f42 073f 0626 623e f6df 2fbf 57cf e53e
000000d0: cae5 5c3f 25e2 91be 2675 07be e5de 133e
000000e0: 1bd5 233f 4514 223e 2adf b53e ce32 473f
000000f0: eb7b 12bf 4288 94be f0d2 0b3f 9cd1 293f
00000100: 778a b7bd 6afa 15be 0a81 4bbf fbc4 203f
00000110: 2c2a 5f3f 413e a1bf 32e6 983e 0c1d a73e
00000120: d2c0 6b3f 8cf1 ddbe fe2e 63bd 8702 833e
00000130: 7692 86bf 4c6a aebf 84a8 fa3e 9dca aa3e
00000140: 8ea0 483f 96b0 a93e 389d c9be 70d0 223f
00000150: fb2a 3a3f 6205 2cbf 7520 703e 7f86 d03e
00000160: 7103 8abe 3583 b43d b19c 7cbe 7b1f 533e
00000170: 79bd 1abf f7a0 4c3e 12ed a13e e5fa 143f
00000180: 21af a6be a0e1 b03d d180 5fbf 1cdd ff3e
00000190: 7de1 a43e ea0a babe 1406 5e3e b1b7 93bd
000001a0: fb42 363f d014 31bf bab5 123f 3151 bf3e
000001b0: 3559 81bf c997 593e b2bb 3d3f d749 4e3e
000001c0: 501a b43e 43de 6c3e 45f7 3dbf 6c81 f7bb
000001d0: 97ea bf3e 434e 64bf cc6c 023f 86fe e33e
000001e0: 8c0c 4f3f 96ea 55bf 927a 913e 6467 fe3e
000001f0: 7386 8ebf 45fa 7abf ce30 263f 66e5 18be
00000200: 71da 27bf e554 303f 2a9f a1bd a55c 94bf
00000210: a2a5 9ebe 8903 e53d eb60 313e 2dc3 06bf
00000220: b95d 5cbf 9e93 2abf 5645 4a3f 0dbf 003f
00000230: 4f9e 063f 05c7 043f ca52 863f 364a 7e3f
00000240: 3151 0e3e c9f0 053e 558b 69be e1e2 dd3e
00000250: 9395 b53e 11e3 8fbe 35c2 163f 53c9 6e3e
00000260: 44cd 30be cb9c 103f aa59 9bbc 61a9 da3e
00000270: db34 28be 163e 1cbe ba3e 373e 2d17 e03c
00000280: f43c 5fbe 1827 6e3e b7ce 52bf 5f8a 0f3f
00000290: d470 293f ba63 89bf 73ce c73e 76d5 18be
000002a0: 5536 043f 5688 42bf a01a 613f a653 91be
000002b0: 2ca5 0abf ea86 d3be 0786 c03e ab27 6c3e
000002c0: 10fd 043f 1584 0f3f 9209 96be 4d17 dd3e
000002d0: 4225 b93e d6c0 d7be b76e 4cbd 7a77 8c3e
000002e0: 807a a63e 5c0e 9cbe eb13 343f 58c8 ef3e
000002f0: 318a d7be ce2b 88bc baca e43e 324e 9d3e
00000300: 1990 8a3e ffc8 cd3e f61e 27bf b876 0e3f
00000310: 79f7 0a3d ac67 f5be 7134 363f 7fa8 1aba
00000320: bb90 e73e 03ca 953e cab5 e93e b512 1e3f
00000330: 0a8e 0ebf 2438 7abe 5339 d43e 7111 303f
00000340: 271a 183d bc27 9f3e e91b 46bf 3e0e 9b3d
00000350: 1abc 063f 5476 e0bd 3aa0 a03e 83c0 043f
00000360: d6c0 583f f600 e3be f0bf c73e 0955 1d3e
00000370: e2bb 8cbf dfb9 d13e 427b 8c3f 7a93 1e3f
00000380: 4a42 ea3e 2e76 813e 7dd8 93be 4fb7 c3bd
00000390: 6aea 6f3f f019 e0be 3572 3e3f f0ad 403f
000003a0: 539f ec3e ff54 853e 3788 42be 6cd9 6b3e
000003b0: b567 40bf 6ec0 3a3f 54c3 243f 56a6 373f
000003c0: 5450 5f3e 69a9 42be 68f4 63b7 eff6 4cbe
000003d0: 6edf 8cbe 4162 26be 9cb2 d73d fd7b 30be
000003e0: 868a 57be 343a 71bd c823 bcba 677b 9ebe
000003f0: 922b 93be e8d0 7dbe d390 813e 5083 52be
0.017164085 0.5730917 -1.2123463 0.6998479 1.1031864 -0.76117295 0.2369396 -0.064810745
0.7788428 -0.7331123 0.5591557 0.28602824 -1.2523991 -1.3323631 0.80685884 -0.25726995
0.27208492 -0.31667098 -0.19333905 0.07571184 -0.38760045 -0.012742715 -0.08847313 -0.90424526
-0.7933452 0.55757815 -0.97740597 -0.16705197 0.19540128 -1.0206777 -0.6965333 0.73512447
-0.050973788 0.46591055 -0.80914074 0.517048 0.6067907 -0.5701506 0.04867575 0.26955894
1.1875044 -0.95341355 0.7921921 0.30480182 -0.8476053 -0.8750613 0.53030425 0.11667384
0.5283584 0.22084817 -0.6870111 0.4488475 0.8628813 -0.28492847 -0.13228282 0.14440496
0.6399705 0.15828045 0.35521823 0.77811897 -0.57220334 -0.29010206 0.5461874 0.66335464
-0.08961957 -0.14646307 -0.79493773 0.6280057 0.87173724 -1.2597123 0.29863125 0.32639349
0.92091095 -0.43348348 -0.055464737 0.25587866 -1.0513446 -1.3626189 0.48956692 0.33357707
0.78369987 0.33142537 -0.3937776 0.635993 0.72721833 -0.67195714 0.23449881 0.40727612
-0.2695575 0.08814088 -0.24669148 0.20617478 -0.6044536 0.19983278 0.31626183 0.58195335
-0.32555488 0.086367846 -0.87305933 0.4997338 0.32203284 -0.36336452 0.21682006 -0.07212771
0.71195954 -0.6917238 0.5730854 0.37366632 -1.0105349 0.21249308 0.74114525 0.20145355
0.35176325 0.23131661 -0.7420543 -0.00755327 0.37483665 -0.8918192 0.5094726 0.44530123
0.8087852 -0.83561075 0.28413826 0.49688256 -1.1134781 -0.9803813 0.6491822 -0.14931259
-0.6556769 0.6887954 -0.07891686 -1.1590773 -0.30985743 0.11182315 0.17322128 -0.52641565
-0.8608051 -0.66631496 0.7901205 0.5029152 0.5258531 0.5186618 1.0494015 0.99331987
0.1389816 0.13080133 -0.22807057 0.43337157 0.3546568 -0.28102925 0.58890086 0.23318987
-0.17265803 0.5648925 -0.018963654 0.4270735 -0.16426413 -0.15258059 0.17895022 0.027354801
-0.21800596 0.232571 -0.8234667 0.5607051 0.6618779 -1.0733559 0.39024696 -0.14925179
0.51645404 -0.7598928 0.8793125 -0.2838413 -0.5415828 -0.4131387 0.37602255 0.23062007
0.5194864 0.56060916 -0.29304177 0.4318184 0.36161238 -0.4213931 -0.049910273 0.27434903
0.32515335 -0.30479705 0.7034289 0.46832538 -0.4209762 -0.01662245 0.44685918 0.3072372
0.27063063 0.4019241 -0.6528162 0.556499 0.033927415 -0.47930658 0.7117377 -0.00058997417
0.45227608 0.29255685 0.45646507 0.61747295 -0.55685484 -0.24435478 0.41449985 0.68776613
0.037134316 0.31085002 -0.7738634 0.07571076 0.5263077 -0.10960069 0.31372243 0.5185625
0.84669244 -0.4433667 0.39013624 0.1536447 -1.0994837 0.4096212 1.0975115 0.6194378
0.457537 0.25285476 -0.28876105 -0.09556448 0.9371706 -0.4376979 0.74393016 0.7526541
0.46215305 0.2604141 -0.18997274 0.23032159 -0.75158244 0.72949874 0.6436055 0.71738183
0.21807986 -0.19009937 -1.358716e-05 -0.20016073 -0.27514213 -0.16248418 0.10532114 -0.17234798
-0.21048936 -0.058893397 -0.0014353925 -0.30953524 -0.2874418 -0.24786723 0.25305805 -0.20557904

bias f4 [16]
00000000: be22 6cbe f007 0f3f 0d9f 25bf fdaf 1b3e
00000010: 31c9 6ebe f609 c93c e209 473e cd5a 6c3d
00000020: 72b3 38bf 0266 b1bd d952 963e 4528 373e
00000030: cc47 543e 1600 9b3e 17d3 0a3e e448 9ebd
-0.23060128 0.55871487 -0.6469582 0.15203853 -0.23318936 0.024540883 0.19437364 0.057703782
-0.7214881 -0.086620346 0.29360083 0.17886455 0.20730513 0.30273503 0.13557087 -0.077287465

weight f4 [16, 16]
00000000: 18a0 0c3f 2078 053f e595 6f3f baed 2a3f
00000010: b9df 4a3f 7809 493f abd2 163e 8063 aa3e
00000020: 5302 9bbf 98af 8d3e fa2c fd3e e92e c33e
00000030: d916 1b3f 60e6 5c3f 0cab ef3e 1619 d93e
00000040: 8ff4 91bf 5f2b 84bf 8611 0abf a9f0 c13e
00000050: c74f 63bf 306b 633f 457a 6cbf b708 86bf
00000060: fa49 b03f 1049 843f 0915 8bbf 5d8f 0c3e
00000070: f98b 053f 464f 37bf 20b3 4b3f 8089 913d
00000080: 64e9 8b3f 3d6e 283f 304f 473f fd90 6a3e
00000090: 320c b43f b78f bb3e 3c43 0e3f 1b9f 553f
000000a0: 46a1 21bf d191 af3e 02ee 0c3f 8681 423f
000000b0: 3825 213f 77ed 483f f25f 803e 6314 06bc
000000c0: 174a 1cbf a8c8 0f3f a918 a2be a87b 7abe
000000d0: 4299 00bf 36e9 2c3e ce67 043e 702a d23c
000000e0: c080 863f 514f 36be b838 ffbd 0c74 c3be
000000f0: 6839 483e 2342 d13e 4546 b43e 0375 07be
00000100: 6324 7e3f e422 24be 9853 593f 4104 0c3f
00000110: 4bfd 8f3f ceb1 423f 96eb 0d3f d9ed 203f
00000120: f0ca 43bf eb9b 903e a607 ff3e 5cc6 c63e
00000130: be55 f13e 4ec9 333f 31bb 503f 1704 a7be
00000140: eab2 403f 4ce8 513f 4de9 183f 223b 8c3e
00000150: aefb 2c3f f75b d63e a03a 693f 220b 403f
00000160: e841 bdbe 1ac9 ff3e 6b9b a73f 2625 183e
00000170: 26a6 c33e 6e45 d13d 43c2 163f 774d 74be
00000180: 252f 153f ea6b d13e 6984 413f 0e01 8e3e
00000190: 8e68 183f f493 913e bba2 0d3f 033f 593f
000001a0: 20e0 80bf 2647 bf3e 7a25 753f 8cea 263f
000001b0: b932 3a3f db5a 193e 2fd5 383f 7062 1fbe
000001c0: 3f6b 8e3f 68fe 7f3f 5495 073f eac8 403f
000001d0: 1fae 953f f299 2f3f d6da ad3e 8126 213f
000001e0: 98d6 92bf d934 1dbe c88d 693f 23a4 453e
000001f0: 53a5 103f 07b4 633f 1c20 183f 737d c6bc
00000200: 9e6a 9abf 745d 9dbf af7d 7bbf e510 8d3e
00000210: a1f1 9bbe abc2 063f 83db 4dbf 2603 35bf
00000220: 1487 d3be 9360 9a3e 0c23 2ebf 6fd7 05be
00000230: 2eba 8bbe 560a c5b9 2d7b 1d3f e79a 42be
00000240: 26dc a8bf 5565 5abf 8214 49bf 8c3c 853e
00000250: 4bc4 81bf 3ace d53e 24bf a1be 2b76 e5be
00000260: a6bc 943f a319 513f 2a2f 65bf da18 133e
00000270: 4db6 c23e baff a7be 086b 0b3f f95c be1f
00000280: d8ca 8b3f 7098 e73e b072 7e3f 0a30 143f
00000290: a58d b83f 1f4a d33e c60c 873f 06d5 263f
000002a0: 4ec8 9cbf 3e44 423e 4e7e 473f 7ff6 c83e
000002b0: 38b3 0d3e 51fb 473f 42e4 0a3f ff48 25bd
000002c0: 0740 403f f472 573e 3031 533f 21c2 a53e
000002d0: 9edd 873f b6b1 c43e 1b27 fb3e 5121 c63e
000002e0: 16dd 98bf 17a2 a93e dfde 9e3f 1bd3 a03e
000002f0: 7610 793e 6bef a13e a219 a93d 353d e0b3
00000300: f529 5b3f 1641 3a3e 4ea5 023f 1ebd 873d
00000310: dc6d ab3f 2196 d13d ab00 163f ef44 4a3f
00000320: 44ad 32bf cfd1 e33e 1dbe 863f 83c3 a63e
00000330: f049 db3e 1b30 6a3f 12a3 ae3e 2323 afbe
00000340: 593b 683f df0e 0b3f 1a4b 753f 0e09 003f
00000350: 32f5 1d3f 44c6 0fbd 038c 313f 163d cf3e
00000360: 7a04 81bf 5b4c 093f 8773 a33f b6df 4b3f
00000370: 7482 163e e724 cf3e 91e7 af3e c98e 6cbb
00000380: cef4 5ebd dc86 31be db38 35bf eb5d bbbe
00000390: 6989 4cbf 1bdd 0ebe 17d8 123e 313f 37bf
000003a0: e3e0 593f 0d79 b8be a4b2 bdbe cf48 b2be
000003b0: 1da7 1fbe 137a a93e 652e 3f3f 7617 9e3e
000003c0: ef6c 6bbf 78d5 babf 0796 8ebf fce7 003f
000003d0: ffcf bbbe e4ee 333f 2f57 9dbf f803 4ebf
000003e0: 65af 24be aaa3 173f 5aa3 a9bf 5c6b 32be
000003f0: 0916 e4be 759f d0be 03f7 3f3f d863 c3bd
0.54931784 0.5213642 0.93588096 0.6676899 0.79247624 0.78530073 0.14728801 0.33279037
-1.2110084 0.2767303 0.49448377 0.38121727 0.6058174 0.86289024 0.46810186 0.42401952
-1.1402758 -1.0325736 -0.5393299 0.37878922 -0.88793606 0.8883543 -0.9237407 -1.047141
1.3772576 1.0334797 -1.0865794 0.13726564 0.52166706 -0.71605337 0.795702 0.07106304
1.09306 0.6579321 0.77855206 0.22906871 1.4066222 0.36633083 0.5557134 0.834459
-0.6313671 0.34290937 0.5505067 0.7597889 0.62947416 0.7848734 0.250732 -0.0081835715
-0.6105055 0.5616555 -0.3165944 -0.24461234 -0.5023385 0.16885838 0.12930223 0.025655001
1.0508041 -0.17803694 -0.1246199 -0.38174474 0.19553149 0.4087077 0.3520986 -0.1322823
0.9927427 -0.16028935 0.8489318 0.5469399 1.1249174 0.7605256 0.554376 0.62862927
-0.76481533 0.28243956 0.49810523 0.3882321 0.4713573 0.7022904 0.8153563 -0.32620308
0.75273 0.8199508 0.5973099 0.27388865 0.6757153 0.4186704 0.9110508 0.7501699
-0.36964345 0.49958116 1.3094305 0.14857921 0.382127 0.10218321 0.5889017 -0.23857675
0.5827506 0.40902644 0.75592667 0.2773518 0.5953454 0.28433192 0.5532643 0.84861773
-1.0068398 0.3735897 0.9576031 0.6520164 0.72733647 0.14976065 0.7220029 -0.15564895
1.1126479 0.9999757 0.5296223 0.7530657 1.1693763 0.68594277 0.3395602 0.6294938
-1.1471739 -0.15352191 0.91231966 0.19300894 0.56502265 0.88946575 0.59423995 -0.02422974
-1.2063787 -1.2294145 -0.9823865 0.27551952 -0.30457786 0.5264079 -0.80413073 -0.7070793
-0.41313994 0.30151805 -0.6802223 -0.13070463 -0.2729048 -0.0003758247 0.61516076 -0.19004403
-1.3192184 -0.8531087 -0.7854692 0.26022756 -1.0138029 0.417589 -0.3159114 -0.44816718
1.1620071 0.81679744 -0.8952509 0.14364949 0.3802971 -0.3281229 0.5446019 8.062194e-20
1.0921278 0.45233488 0.9939375 0.578858 1.4418226 0.41267487 1.0550773 0.651688
-1.2248628 0.18971345 0.779271 0.39250562 0.13837898 0.78117853 0.54254544 -0.040352818
0.750977 0.21039945 0.8249693 0.3237467 1.0614507 0.38416833 0.49053273 0.38697293
-1.194247 0.33131477 1.2411765 0.3141106 0.24322686 0.31627974 0.08256842 -1.0441946e-07
0.85610896 0.18188891 0.51033485 0.06627868 1.3392901 0.10233713 0.5859477 0.79011434
-0.6979563 0.4449601 1.0526768 0.3257104 0.42829847 0.91479653 0.34108788 -0.34206495
0.9071556 0.54319566 0.9581772 0.50013816 0.61702263 -0.03510119 0.69354266 0.40476292
-1.0079491 0.53632134 1.2769631 0.7963823 0.14698201 0.40457842 0.3435636 -0.0036095849
-0.054432683 -0.17336601 -0.7078988 -0.3659509 -0.7989717 -0.13951533 0.14340244 -0.715808
0.85108775 -0.36029854 -0.37050354 -0.34821174 -0.15591092 0.33100948 0.7468017 0.30877274
-0.91963094 -1.4596395 -1.1139535 0.5035398 -0.36682126 0.70286393 -1.2292231 -0.80474806
-0.16082533 0.59234107 -1.3252976 -0.17423767 -0.4454806 -0.40746656 0.74986285 -0.09540528

bias f4 [16]
00000000: d5ae d93d ad75 01bf cfd3 593e c3b9 683d
00000010: 3a8b 133e 46ab 3f3e 36a2 263e 6424 6b3e
00000020: 0f20 31bc c5c4 5ebe 94d1 cebd 1e78 2d3e
00000030: 1689 4e3e fe6f e53d 9759 203f 0a65 8a3a
0.1062905 -0.50570184 0.21272205 0.05681778 0.1440858 0.1871768 0.16272816 0.229631
-0.010810866 -0.21754749 -0.100985676 0.16940352 0.20169482 0.112030014 0.62636703 0.0010558676

weight f4 [16, 16]
00000000: 0b1a d23e ba30 87bf 0ce8 e83e bb7a 16bf
00000010: 3055 5d3f cd40 5d3f 02e9 3f3f 37e7 503f
00000020: 20c8 92bf 79b2 a4bf 1ead 583f 4523 3b3f
00000030: 0f48 a03e ffdf 203f a81e 1e3f 1089 c1bf
00000040: da22 05bf 2235 343e 0ac6 d33d f1ed 56be
00000050: e625 d4bd 745a 8d3d b9aa 373e 8be1 823e
00000060: 8709 2b3e a281 eabe 6f69 5e3e e1e9 e6be
00000070: c166 85be 972d 82be 4234 543e 9445 663e
00000080: 3501 f83e 9e96 c5bf 9234 463f 9cdb c8be
00000090: 8bad e93d fee5 3e3f ea94 6d3f 16c7 eb3e
000000a0: 5070 a5bf bfea abbf 65c5 333f 6d6d 853f
000000b0: 7e53 753f ca0f 213f b633 953f 0f8c d8bf
000000c0: a679 8abc 95c1 12bc 6dbd 91bc 5616 2c3a
000000d0: 21c2 91bc fcbe 6dbc b250 70bc f6f0 8bbc
000000e0: abea b93a 03cd 57ba 4373 89bc ad75 7ebc
000000f0: 8863 80bc e5ab 71bc d7a9 18bb efd4 9038
00000100: b498 1ebd 1770 b3be 53ef b23e 2c50 113e
00000110: 1338 593e f226 53be b211 07be ef06 fcbe
00000120: d0d4 c33e d9e0 5bbc c29d 703e 5c53 7e3e
00000130: d519 b1be 67a1 8b3e 069c ae3e 4b85 0f3e
00000140: d9d9 2abd 7a8f b33e 0c47 febd 7c4c 25be
00000150: 619b 273e 195b 04be 31d9 86be a5f8 92be
00000160: f19c 1fbd e9f5 a2be bdd3 4b3e aeeb c538
00000170: 797a 1bbc a678 c4be b4ae 2abd 11b8 5c3d
00000180: 5df7 0c3e d850 743f e9d4 943e 112b 313e
00000190: 30a0 44be a6a8 cabc 04cb c13e f4db a8be
000001a0: 6cdf ba3f 87cc 3c3f be13 c73d 44d4 ab3d
000001b0: 12a3 e5be e031 71be 0c4b 6dbf a89e d73f
000001c0: 3315 0b3f 0773 2dbf a8c0 5d3f 351b 63be
000001d0: c602 463f 95e8 263f 8426 0d3f f266 d63e
000001e0: 49f7 a4bf a403 94bf a068 653f f358 4b3f
000001f0: 9fca 1f3f f58c db3e bbcf 733f 4766 bcbf
00000200: 8faf c13e 3417 a03f f832 c3be 2868 0d3e
00000210: 5d73 063e cc85 8b3b bc67 a33d 089b d7be
00000220: 9665 8e3f 360a bb3f 6738 0d3e c30c 94be
00000230: f81e 4cbe e531 123e a9a2 90bf 0c4b 953f
00000240: 50d2 b7be 1079 883f e2b6 0c3d d960 cb3f
00000250: 2262 793c b2e5 483e 0f10 47be 3bd5 6bbe
00000260: eda5 193f 340a 963f 8ad1 3cbf 1aa0 c4be
00000270: eda8 87bd 5e7d 76be 7278 c13f 3656 1cbf
00000280: dc4f 34be 44c7 953e f861 59be 741e e6bd
00000290: ff0b 9fbd 29e8 b9bd c758 4bbe 1dc1 b53e
000002a0: 250b 813c b7ed 97be 7bee 7ebd fd1e b5bb
000002b0: 4757 13bc a449 963e 8922 9ebe d4ac cbbd
000002c0: 911a 783e 4a35 bebf 997d 0b3f 9db8 afbe
000002d0: 67e5 7e3d 655b 603f f1a5 173f bd4f 0d3f
000002e0: 406b babf 4708 9fbf 1215 9c3f 1a64 793f
000002f0: 1976 4c3f fc34 8c3f 7f1c 9f3f 9489 9dbf
00000300: 206a 943d aa94 d13f ceb0 4cbd 8311 a83e
00000310: 1b88 173e a308 903e 6820 4c3d 3e3e dfbe
00000320: 0a24 c93f e615 a43f 34f5 b1be cb1f 97be
00000330: 4181 ee3d c396 b63d 6c19 92bf 032c e33f
00000340: f121 463f 37ad 9bbf c759 0c3e 7104 1ebe
00000350: 1741 833e 9ae3 493f 2f38 253f c4f3 4a3f
00000360: 5046 c1bf 595c 9abf c969 193f bef8 633f
00000370: 90f4 163f be9b 373f d9c8 423f f4b6 e4bf
00000380: 1214 0b3e b2d2 9dbf cf02 433f a2f8 e0be
00000390: 1945 553f fb3c 8a3e 4c2b 513f 3cdf d73e
000003a0: 0702 b0bf d665 94bf 802f 2c3f 220f 0b3f
000003b0: af77 643f 7eb1 483f 00b1 123f 0b7e 80bf
000003c0: 131e 893b 8e59 a33d 8946 4e3d c396 d93e
000003d0: 4852 b4be 11a7 a43e 631e 67be 3568 c33e
000003e0: 276d babe f8a4 ea3c 800a 80bd aa4d 18bd
000003f0: 3f10 13bd 2f0f 0abd 43b7 5fbf 50f4 a5be
0.41035494 -1.0561745 0.45489538 -0.5878102 0.8645811 0.86427003 0.74964917 0.81602806
-1.1467323 -1.2866966 0.84639156 0.7310069 0.31304976 0.6284179 0.6176553 -1.5119953
-0.52006304 0.17598394 0.10340507 -0.20989205 -0.10358791 0.06902018 0.1793622 0.255627
0.16702853 -0.45802027 0.21719907 -0.4510031 -0.26054958 -0.25425407 0.2072306 0.2248748
0.4843842 -1.543659 0.77423966 -0.3923005 0.11410054 0.7456969 0.9280535 0.46050328
-1.29249 -1.3431014 0.70223075 1.0424019 0.95830524 0.6291472 1.1656406 -1.6917742
-0.01690371 -0.008957286 -0.01779052 0.00065646076 -0.017792763 -0.014510866 -0.014667677 -0.017082673
0.0014184316 -0.0008232148 -0.016778594 -0.015530986 -0.01567246 -0.0147504555 -0.0023294592 6.906117e-05
-0.038719848 -0.35046455 0.34948215 0.1419074 0.21212797 -0.20620325 -0.13190344 -0.4922404
0.382483 -0.013420307 0.2349768 0.24836487 -0.3459002 0.27271578 0.3410341 0.14015691
-0.041711662 0.350704 -0.12415895 -0.16142458 0.16367866 -0.12925376 -0.2633758 -0.28705326
-0.03896803 -0.3182824 0.1990499 9.437591e-05 -0.009489649 -0.38373297 -0.041670516 0.053886477
0.13766237 0.9543586 0.29068688 0.17301585 -0.19201732 -0.024738621 0.378502 -0.3298031
1.4599433 0.73749584 0.097205624 0.08390096 -0.44850975 -0.23554182 -0.9269264 1.6845293
0.5432922 -0.6775364 0.86622095 -0.22178347 0.7734798 0.6519864 0.55136895 0.41875416
-1.2887965 -1.1563611 0.8961277 0.794326 0.6241855 0.4288098 0.95238847 -1.4718713
0.37829253 1.2507081 -0.38124824 0.13809264 0.13129945 0.004257893 0.0797877 -0.42110467
1.1124752 1.4612491 0.13791047 -0.28915986 -0.19933689 0.14276846 -1.129964 1.1663527
-0.35902643 1.0661945 0.0343541 1.588893 0.015221151 0.19618872 -0.1943972 -0.2303056
0.6001881 1.1721864 -0.7375723 -0.38403398 -0.06624017 -0.24071261 1.5114882 -0.6106905
-0.17608589 0.2925359 -0.21228778 -0.11236277 -0.0776596 -0.09077484 -0.19858085 0.35498896
0.015752384 -0.2967355 -0.06223915 -0.0055273757 -0.0089929765 0.29353058 -0.30885723 -0.09945074
0.24228884 -1.4860013 0.5448852 -0.34320536 0.062230494 0.87639457 0.5923758 0.55199796
-1.456398 -1.2424401 1.219393 0.9741837 0.798677 1.095367 1.2430571 -1.230761
0.07246804 1.6373494 -0.0499733 0.3282586 0.14798014 0.2813159 0.049835593 -0.43602175
1.5714123 1.2819183 -0.34757388 -0.29516444 0.11645747 0.08915474 -1.1414008 1.7747806
0.7739554 -1.2162236 0.13706122 -0.15431382 0.25635597 0.7886292 0.64538854 0.79278207
-1.5099583 -1.2059432 0.5992704 0.89051425 0.5896692 0.7172202 0.7608772 -1.7868333
0.13581875 -1.2329924 0.7617616 -0.43939692 0.8330856 0.2699965 0.8170669 0.42162502
-1.3750619 -1.1593578 0.6725998 0.54319966 0.8924512 0.7839583 0.5730133 -1.0038465
0.0041844933 0.079760656 0.050360236 0.42497835 -0.35219026 0.32158712 -0.22570185 0.3816544
-0.36411402 0.028643116 -0.06252003 -0.03718344 -0.035904165 -0.033705886 -0.8738901 -0.32412958

bias f4 [16]
00000000: 3b5d 1f3e c5e5 96bd 590d 393e ce55 9038
00000010: 644a 18bb 4658 0ebd f421 4dbe cb04 1c3e
00000020: 57d8 cdbe 2f48 723f ff4f 06bd 39ae 3e3e
00000030: 72c8 f3be 51c0 1e3e af48 1c3e f6d2 4d3d
0.15562908 -0.07368044 0.18071498 6.8824374e-05 -0.00232377 -0.034752153 -0.20032483 0.15236203
-0.40204117 0.94641393 -0.032791134 0.18621148 -0.47613865 0.1550305 0.15262102 0.050250016

weight f4 [1, 16]
00000000: 6964 443f e8f4 9ebe 272b 403f 23f8 a13b
00000010: 88c8 fcbd 93a1 03be bc14 bdbf 7320 8c3f
00000020: 1ed2 dfbf 9960 cf3f 7485 e8be 803e 783f
00000030: 8533 d8bf 780e 733f de0e 643f ee51 b4bf
0.76715714 -0.31046224 0.75065845 0.0049429103 -0.12342936 -0.12854604 -1.4771953 1.0947403
-1.7485998 1.6201354 -0.45414317 0.9697037 -1.6890723 0.9494395 0.89085186 -1.4087503
