predictive_model/model.pth (torch, 9436 bytes, 9 tensors)

weight f4 [16, 9]
-1.282408 -0.7930606 0.19270822 0.03240623 -0.35529372 -0.61380553 -0.35298592 0.18644588
0.24056427 -0.51139516 0.18191686 -0.25665843 0.7467909 -0.033063013 0.1720816 0.31201434
-0.4407777 -0.19803192 0.29745892 -1.0798484 -0.95632297 0.18534799 0.41210255 -0.22054733
-0.16784425 -0.1764262 0.24401568 -1.233051 0.16464105 0.3765144 0.64367634 0.52013606
-0.42054558 -0.13702895 -0.39714164 -0.25112948 -0.806227 -0.36709207 0.112944864 0.8311867
-0.0739172 -0.46548608 -0.17935131 -0.0036835962 -0.016351432 0.11122115 0.16913708 0.471161
0.92950535 -0.20827293 -0.07781294 -0.5683687 -0.21513058 -0.96379435 -1.036176 0.045683857
0.33313522 0.55428714 -0.33024505 -0.13867973 -0.26920694 0.14166841 -0.8244425 -0.49363908
-0.41804767 -0.07425878 0.49713144 0.3572048 -0.23360506 -0.012476039 -0.45024425 -0.3242169
0.20547006 -0.49344 0.6479707 0.26290205 0.9175337 -0.7814971 -0.36307746 -0.03873033
-0.87569475 -0.7653264 0.17610389 1.2515907 0.29772174 0.51246494 -0.2896918 0.047965646
-0.05933517 -0.22634101 -0.60774094 -0.93135387 -1.3550737 -0.51204926 0.023814235 -0.5819548
-0.68551755 0.35304984 0.11594237 -0.84862095 0.4837574 0.5233131 -0.5470355 -0.15940781
-0.15650278 -0.3520825 -0.42244172 -0.35655883 0.08474458 0.5305519 1.1362258 -0.12156085
0.8276294 0.4666086 0.025570313 -0.2867171 0.6332161 0.03541015 -0.090082996 0.804522
0.47425154 0.7661897 0.1073491 0.03147148 -0.6397509 0.023428384 -1.0012953 0.027165672
0.07671984 -0.023130547 0.56309026 0.3697751 0.25144738 -0.6454802 -0.47522506 0.3086755
0.036118306 -0.7526084 0.5909042 -0.6008393 0.3235572 0.3634049 -0.49472138 -0.47514194
00000000: f225 a4bf 0506 4bbf 4e55 453e 65bc 043d
00000010: 0fe9 b5be 5c22 1dbf 92ba b4be abeb 3e3e
00000020: 7b56 763e cbea 02bf 6a48 3a3e bc68 83be
00000030: b02d 3f3f 156d 07bd 2936 303e 58c0 9f3e
00000040: 9dad e1be e1c8 4abe 894c 983e 7938 8abf
00000050: 95d1 74bf ddcb 3d3e 1bff d23e 29d7 61be
00000060: 5ddf 2bbe 12a9 34be 3fdf 793e 9dd4 9dbf
00000070: aa97 283e 7fc6 c03e f9c7 243f a327 053f
00000080: c051 d7be 5151 0cbe 2656 cbbe 0b94 80be
00000090: e564 4ebf 7ef3 bbbe a34f e73d a7c8 543f
000000a0: e761 97bd 3154 eebe dfa7 37be 7d68 71bb
000000b0: 70f3 85bc eac7 e33d 4532 2d3e 043c f13e
000000c0: 10f4 6d3f 8045 55be 645c 9fbd 9c80 11bf
000000d0: 314b 5cbe 3abb 76bf 6aa1 84bf ff1e 3b3d
000000e0: b390 aa3e c3e5 0d3f e115 a9be 0f02 0ebe
000000f0: 7ed5 89be 8611 113e aa0e 53bf 43be fcbe
00000100: 580a d6be fd14 98bd 0388 fe3e 8ce3 b63e
00000110: 2a36 6fbe 4d68 4cbc 6a86 e6be c2ff a5be
00000120: be66 523e 2ba4 fcbe 68e1 253f 199b 863e
00000130: 7de3 6a3f 3210 48bf 4ae5 b9be b2a3 1ebd
00000140: 882d 60bf 6eec 43bf 9454 343e 2034 a03f
00000150: fc6e 983e e730 033f 7c52 94be a077 443d
00000160: 6f09 73bd f0c5 67be e994 1bbf 356d 6ebf
00000170: 0e73 adbf a915 03bf 1216 c33c fdfa 14bf
00000180: 147e 2fbf f3c2 b43e 3173 ed3d 393f 59bf
00000190: 0daf f73e d9f7 053f 850a 0cbf cd3b 23be
000001a0: 4442 20be 2844 b4be 484a d8be e18e b6be
000001b0: 918e ad3d 40d2 073f d96f 913f e5f4 f8bd
000001c0: 85df 533f 53e7 ee3e d578 d13c 95cc 92be
000001d0: 731a 223f 3c0a 113d 6f7d b8bd 27f5 4d3f
000001e0: 19d1 f23e 0225 443f d8d9 db3d 3de8 003d
000001f0: b7c6 23bf e2ec bf3c 722a 80bf 8b8a de3c
00000200: 4b1f 9d3d 467c bdbc af26 103f 2953 bd3e
00000210: b6bd 803e 313e 25bf b350 f3be b70a 9e3e
00000220: caf0 133d f2aa 40bf 7f45 173f 9bd0 19bf
00000230: 4aa9 a53e 3510 ba3e 1f4c fdbe ce45 f3be

bias f4 [16]
0.16793582 0.3033649 0.18808055 0.3310076 0.06971985 -0.17753522 -1.038538 0.09245111
-0.04409845 0.36835235 0.33112147 0.879011 0.17485553 -0.18552828 0.41126385 0.5563982
00000000: 5ef7 2b3e a552 9b3e 3098 403e d479 a93e
00000010: 48c9 8e3d cbcb 35be d0ee 84bf 0257 bd3d
00000020: 94a0 34bd ae98 bc3e c188 a93e dd06 613f
00000030: 540d 333e 20fb 3dbe 2d91 d23e 1d70 0e3f

weight f4 [16, 16]
0.7069967 0.37613997 0.06993064 0.08902778 0.42353234 0.03483316 0.35856405 0.100604735
0.19308713 0.2214464 0.06155439 0.02310263 0.13612704 0.22387922 0.09279511 0.18380421
1.2184134 0.247618 -0.5365546 0.3226164 0.4199113 -0.110632196 0.8801897 0.06705243
-0.42269963 0.20615596 -1.1143016 0.8316616 0.35573658 -0.2094069 -0.091720365 -0.45076993
0.04793625 0.6787711 0.49229673 0.22053975 0.32510087 0.4341092 0.84082353 0.22802156
0.4124488 -0.05042251 1.3109485 0.49728808 -0.13849373 0.3205687 -0.30953643 0.5745155
0.6156242 -0.23173513 -0.81973445 0.3978358 0.35338905 -0.046151046 0.72190833 -0.14673856
0.08520335 0.1917533 -1.2898359 0.43497545 0.34338543 0.015734164 0.4239605 -0.36015847
-0.62727946 -0.4870527 0.041805994 -0.2994089 -0.30360812 1.3404149 0.50178576 -0.0381655
0.7819283 -0.28359228 1.2150533 -1.1319702 1.3269292 1.3356119 -0.71054375 -0.31190455
1.1690582 -0.038202774 0.13442294 0.29452398 0.68282735 0.051709145 0.8964873 0.2637031
0.36093938 0.004590041 -1.0237966 0.28876036 -0.08919168 0.17220439 0.2747659 0.006134321
0.3524621 0.38952106 -0.16456483 0.5402881 0.87223476 0.6304363 0.16519661 0.28210518
0.59658086 0.034924056 -0.8007461 0.6301463 0.23145765 0.07947563 0.37371466 -0.6303442
0.100754134 -0.7269303 0.5275802 0.13491717 0.052704275 0.023588188 -0.42002663 -0.01762373
0.82808393 -0.43981028 1.2768873 -0.4791509 -0.64601016 1.02066 -0.27225327 -0.1453537
0.81891865 -0.046375055 -0.72752845 0.1967863 0.9534535 0.483001 0.7502531 0.10234877
0.6265907 0.8897515 -1.2648373 0.44570458 -0.5984456 -0.2318373 -0.10673334 -0.27476892
1.2293215 -0.24344057 -0.79631054 0.3906648 0.54567546 -0.2518674 0.41038048 -0.36147335
-0.07669718 0.4689464 -0.64107 0.2826162 0.6800819 0.16689795 0.12212702 -0.4212764
-0.3856389 0.857981 0.5089419 0.23727699 0.16237845 0.51366097 -0.1986143 0.77958286
-0.8944645 -0.85908157 -0.2607026 -1.0490814 -0.8204319 -0.811587 -0.21255425 1.2327706
0.84597105 -0.28731957 0.086544275 0.1551813 -0.008102125 0.2234669 0.23787504 0.41287607
0.3512298 0.05521439 -0.4405161 0.48228887 -0.17109427 0.39838374 0.2422246 -0.011580335
0.973702 0.45508122 -0.6757632 0.5800337 0.09387494 0.17905533 0.4724232 -0.085964724
0.0011252756 0.66131693 -0.8314369 0.19580723 0.6317923 0.594654 0.31400147 -0.34342098
0.6674522 -0.21136475 -0.54130393 0.0195014 0.36205682 -0.0066518127 0.60925865 0.4684822
0.27335432 0.6872059 -1.0726924 0.41577473 0.084944785 0.1974173 0.34331062 -0.35677004
0.1887842 0.4538313 0.37555838 0.53578097 -0.056466863 0.34063366 0.32954636 0.047639433
0.24708994 -0.10893593 -0.15145022 0.33981046 0.30246595 0.38422737 0.22530685 -0.012630777
1.267253 0.3551603 -0.6203382 -0.14512779 0.20398277 0.3525082 0.883298 -0.29409835
-0.24286707 0.40836605 -1.189523 0.2827204 0.27963045 0.50750715 0.22454299 -0.20857047
00000000: bcfd 343f 6b95 c03e cc37 8f3d 3254 b63d
00000010: 3bd9 d83e 37ad 0e3d b595 b73e db09 ce3d
00000020: a2b8 453e d8c2 623e 7520 7c3d ba41 bd3c
00000030: e364 0b3e 9840 653e 5d0b be3d 2c37 3c3e
00000040: f8f4 9b3f 938f 7d3e a45b 09bf fa2d a53e
00000050: 9dfe d63e 2293 e2bd 1d54 613f c952 893d
00000060: 166c d8be 8c1a 533e 6fa1 8ebf c6e7 543f
00000070: 1b23 b63e c36e 56be e3d7 bbbd 51cb e6be
00000080: cd58 443d f1c3 2d3f 510e fc3e 2cd5 613e
00000090: 9f73 a63e 9043 de3e 3640 573f 7c7e 693e
000000a0: 7d2c d33e d587 4ebd 29cd a73f 8b9c fe3e
000000b0: 4dd1 0dbe 9521 a43e 8f7b 9ebe 7313 133f
000000c0: 8c99 1d3f f94b 6dbe 1eda 51bf 22b1 cb3e
000000d0: 69ef b43e e108 3dbd fcce 383f a242 16be
000000e0: 187f ae3d fa5a 443e 5819 a5bf 1ab5 de3e
000000f0: 37d0 af3e efe4 803c 5a11 d93e b166 b8be
00000100: 6395 20bf f95e f9be c33c 2b3d 204c 99be
00000110: 8672 9bbe b792 ab3f 0875 003f 6d53 1cbd
00000120: 742c 483f 0233 91be de86 9b3f 66e4 90bf
00000130: d1d8 a93f 55f5 aa3f 32e6 35bf f4b1 9fbe
00000140: b3a3 953f 837a 1cbd 2ba6 093e d9cb 963e
00000150: c6cd 2e3f f8cc 533d 3180 653f 1804 873e
00000160: 0ccd b83e 0e68 963b c40b 83bf 66d8 933e
00000170: 21aa b6bd 5956 303e 1eae 8c3e 6a02 c93b
00000180: ea75 b43e 4e6f c73e af83 28be 5250 0a3f
00000190: c74a 5f3f 4664 213f 4d29 293e 1770 903e
000001a0: 86b9 183f 870c 0f3d b2fd 4cbf 4551 213f
000001b0: 3c03 6d3e 1ec4 a23d 8757 bf3e 3d5e 21bf
000001c0: 2f58 ce3d 1b18 3abf 7f0f 073f ba27 0a3e
000001d0: 70e0 573d 043c c13c bb0d d7be a45f 90bc
000001e0: 4ffd 533f d02e e1be 0b71 a33f 4453 f5be
000001f0: ec60 25bf fda4 823f c864 8bbe 9ad7 14be
00000200: a7a4 513f c5f3 3dbd 4e3f 3abf 5982 493e
00000210: 8715 743f e84b f73e 9610 403f 3b9c d13d
00000220: 4068 203f c1c6 633f 30e6 a1bf 6433 e43e
00000230: bb33 19bf c266 6dbe 0297 dabd 83ae 8cbe
00000240: 685a 9d3f 7c48 79be 02db 4bbf 3705 c83e
00000250: 63b1 0b3f c4f4 80be 641d d23e 0913 b9be
00000260: 6913 9dbd be19 f03e 2a1d 24bf 12b3 903e
00000270: d919 2e3f 4ce7 2a3e bb1d fa3d 8ab1 d7be
00000280: 7672 c5be a5a4 5b3f 044a 023f bdf8 723e
00000290: 8946 263e 497f 033f 8c61 4bbe be92 473f
000002a0: a0fb 64bf c5ec 5bbf d07a 85be 4d48 86bf
000002b0: d307 52bf 2ac4 4fbf d2a7 59be 6dcb 9d3f
000002c0: 8f91 583f 8d1b 93be 203e b13d d9e7 1e3e
000002d0: c6be 04bc 82d4 643e 8495 733e 7e64 d33e
000002e0: 64d4 b33e 7c28 623d 548b e1be 91ee f63e
000002f0: 5633 2fbe f4f8 cb3e ba09 783e 72bb 3dbc
00000300: 8944 793f 6800 e93e d1fe 2cbf 177d 143f
00000310: 8141 c03d 485a 373e 74e1 f13e 460e b0bd
00000320: fc7d 933a 114c 293f 0cd9 54bf b181 483e
00000330: 24bd 213f 3f3b 183f cdc4 a03e e0d4 afbe
00000340: 26de 2a3f 0070 58be e592 0abf 66c1 9f3c
00000350: 835f b93e 73f7 d9bb 60f8 1b3f e6dc ef3e
00000360: 19f5 8b3e baec 2f3f fc4d 89bf 6de0 d43e
00000370: 88f7 ad3d c327 4a3e 69c6 af3e 90aa b6be
00000380: a550 413e 935c e83e 3049 c03e f128 093f
00000390: cc49 67bd 8967 ae3e 4dba a83e 9121 433d
000003a0: 2505 7d3e cd19 dfbd c415 1bbe a3fb ad3e
000003b0: d1dc 9a3e 73b9 c43e d7b6 663e 52f1 4ebc
000003c0: 5935 a23f 92d7 b53e 7cce 1ebf 619c 14be
000003d0: dce0 503e f47b b43e d11f 623f 0f94 96be
000003e0: 25b2 78be 5b15 d13e 4a42 98bf bac0 903e
000003f0: b92b 8f3e fdeb 013f 99ee 653e 7f93 55be

bias f4 [16]
0.23825613 -0.052296504 0.716647 0.012149051 -0.6126414 0.044757772 0.13705704 -0.28442264
-0.3923989 -0.031883106 0.80643755 -0.015360002 0.03880674 0.02642797 0.12166607 -0.033072688
00000000: 6af9 733e dc34 56bd 2e76 373f d00c 473c
00000010: 11d6 1cbf ed53 373d ae58 0c3e d89f 91be
00000020: 82e8 c8be dc97 02bd b172 4e3f 85a8 7bbc
00000030: d1f3 1e3d 787f d83c 0f2c f93d 3a77 07bd

weight f4 [16, 16]
0.122312725 1.1434622 0.39361233 0.6610895 -0.30636075 0.22388515 0.71305424 -0.6054837
0.77475584 0.9392816 -0.7884209 0.21638858 0.63310766 0.22042152 0.5931383 0.25858206
0.14716278 -0.009738816 -0.06444945 -0.011711823 -0.1006913 -0.054985654 -0.12740567 0.0018106619
0.20107517 -0.25380978 -0.13171849 -0.29809332 -0.094900206 -0.29016715 0.10431738 0.30231646
-0.0016048718 0.9742721 -0.6165037 0.62546676 -1.662102 0.43925107 0.46134326 -1.2151883
1.2375976 0.77158725 -0.77196574 0.3424735 -0.0060418467 0.35428032 -0.29795024 0.7593773
0.32834482 -0.8976703 1.2544019 -0.90300506 1.0343529 0.61278707 0.0100365775 0.5084662
-0.24653302 -1.0613778 1.3127805 0.6819096 -0.07744383 -0.86686623 1.0261745 -0.69079405
-5.330133e-06 -0.018135421 -0.34834722 -0.009198461 0.21443865 0.27908096 -0.48890617 -0.08527426
0.3654354 -0.39347145 -0.3494286 0.08566232 -0.34304032 0.36989152 -0.23881102 0.06343522
0.13188083 0.4082575 -0.4590802 1.059424 -1.4037572 0.8099602 0.36675036 -0.8031921
1.0515034 0.9764081 -0.9167555 0.46062088 0.31604666 0.3299729 0.38304228 0.87112325
0.11231482 0.92414224 -0.5983293 0.7715432 -1.2171758 0.71866417 0.1996948 -1.1448613
0.9835613 0.74263304 -1.1832196 0.6000653 0.0790086 0.10387869 0.3037656 0.8749253
-0.13957304 0.8290103 -0.35133433 0.6093967 -1.4171726 0.7533134 0.388042 -1.138803
0.6910633 0.64518845 -1.1182221 0.31315076 0.6267011 0.54426914 0.1285995 0.90341324
0.5345777 0.692669 -0.38433757 0.6262171 -0.77209574 0.71889305 0.72749424 -0.62526035
0.7228915 0.9397334 -1.2385712 0.6569949 0.17492211 0.5079268 0.17309768 0.80253917
0.79639447 -0.42265365 1.1692841 -0.9575462 1.0255011 -0.11371433 0.48221663 1.4124106
-0.30756193 -0.9880378 1.0434937 0.55798906 -0.42043716 -0.7055139 0.7134112 -0.5934729
0.19439825 0.4479137 -0.53759766 0.9745383 -1.093383 0.467579 -0.15056312 -0.846906
0.5651562 0.44401795 -0.52698565 0.5822314 0.62358844 0.80678475 0.3284573 0.84355426
0.1277576 -0.28288877 -0.14460373 -0.19116272 -0.44647 -0.28634337 0.20462339 -0.13808185
-0.33849183 -0.2888966 -0.03590558 0.2289702 0.16313805 -0.28282502 -0.4203294 -0.060324516
0.03191765 0.74894685 -0.5959474 0.9282167 -1.0973623 -0.030781934 0.5555625 -0.64223695
0.9431198 0.6303857 -1.3396434 0.26075333 0.5573781 0.81352866 0.39489794 0.6225657
0.5782899 0.39029118 0.62540644 0.85435337 -1.2199808 0.553177 0.644105 -0.025114177
0.6650795 0.25233328 -1.27315 -0.041491244 0.3488212 0.70944047 0.21480088 0.63081515
0.71004987 1.1035755 -0.039695006 0.38741863 -1.0513953 0.6432666 0.41696373 -0.9789302
1.3091937 0.6308139 -0.9235116 0.27254665 0.26166978 0.31321865 0.48653817 0.26542655
0.15306145 -0.49129272 0.4376451 -0.5033097 1.3665636 -0.04890063 -0.13739741 0.49070343
-0.05261707 -0.33488277 1.300056 -0.1401592 -0.11773508 -0.15806586 0.6240418 0.07024538
00000000: 187f fa3d f85c 923f 8e87 c93e 293d 293f
00000010: 51db 9cbe 2642 653e b98a 363f fb00 1bbf
00000020: 6656 463f c274 703f f4d5 49bf f894 5d3e
00000030: 5813 223f 2eb6 613e e9d7 173f de64 843e
00000040: d7b1 163e 8e8f 1fbc 13fe 83bd f2e2 3fbc
00000050: 3e37 cebd a338 61bd a276 02be bb53 ed3a
00000060: a6e6 4d3e 5bf3 81be 36e1 06be b09f 98be
00000070: 0a5b c2bd ca90 94be 5aa4 d53d 39c9 9a3e
00000080: 905a d2ba e569 793f 30d3 1dbf 971e 203f
00000090: c2bf d4bf 84e5 e03e 2f35 ec3e 4a8b 9bbf
000000a0: 9969 9e3f be86 453f 8c9f 45bf b058 af3e
000000b0: affa c5bb 3b64 b53e ef8c 98be 8d66 423f
000000c0: d01c a83e b9cd 65bf 3e90 a03f 572b 67bf
000000d0: ad65 843f 9ddf 1c3f 7570 243c d72a 023f
000000e0: 2773 7cbe 3adb 87bf 3109 a83f a191 2e3f
000000f0: df9a 9ebd f2ea 5dbf b059 833f e1d7 30bf
00000100: 7ed9 b2b6 bc90 94bc 915a b2be 24b5 16bc
00000110: ce95 5b3e b3e3 8e3e e951 fabe 45a4 aebd
00000120: 591a bb3e 1775 c9be 4ee8 b2be ba6f af3d
00000130: fba2 afbe 6c62 bd3e e08a 74be 53ea 813d
00000140: c50b 073e 2107 d13e 8f0c ebbe 359b 873f
00000150: 51ae b3bf 8d59 4f3f b4c6 bb3e ff9d 4dbf
00000160: aa97 863f e2f5 793f 7db0 6abf 80d6 eb3e
00000170: ded0 a13e 35f2 a83e 1e1e c43e ef01 5f3f
00000180: 5005 e63d 9694 6c3f 1c2c 19bf db83 453f
00000190: 6bcc 9bbf 60fa 373f cb7c 4c3e d18a 92bf
000001a0: acca 7b3f 331d 3e3f bd73 97bf e19d 193f
000001b0: 43cf a13d 5abe d43d 2a87 9b3e 1bfb 5f3f
000001c0: 3cec 0ebe 053a 543f 18e2 b3be 6c01 1c3f
000001d0: e965 b5bf 26d9 403f 71ad c63e 4cc4 91bf
000001e0: 86e9 303f 122b 253f e721 8fbf 4c55 a03e
000001f0: 7c6f 203f 3955 0b3f 96af 033e 1746 673f
00000200: 16da 083f c152 313f e5c7 c4be c44f 203f
00000210: 11a8 45bf 6009 383f 103d 3a3f 1011 20bf
00000220: 6b0f 393f 5e92 703f 8089 9ebf d130 283f
00000230: c81e 333e 7e07 023f 8540 313e 3573 4d3f
00000240: 82e0 4b3f 0f66 d8be 1aab 953f bf21 75bf
00000250: 9f43 833f 0fe3 e8bd 19e5 f63e dfc9 b43f
00000260: c278 9dbe 0cf0 7cbf 3491 853f 5fd8 0e3f
00000270: 8a43 d7be 8f9c 34bf 1ea2 363f d7ed 17bf
00000280: 5610 473e f254 e53e 00a0 09bf 587b 793f
00000290: f9f3 8bbf 8466 ef3e 382d 1abe d5ce 58bf
000002a0: 14ae 103f 5256 e33e 88e8 06bf 1e0d 153f
000002b0: 7ea3 1f3f 7289 4e3f 8e2b a83e 2cf3 573f
000002c0: e3d2 023e ccd6 90be 0013 14be 29c0 43be
000002d0: b797 e4be 999b 92be cb88 513e 5465 0dbe
000002e0: cd4e adbe 41ea 93be bb11 13bd 2a77 6a3e
000002f0: a90d 273e 71ce 90be 6a35 d7be d716 77bd
00000300: 15bc 023d fbba 3f3f 0290 18bf 9c9f 6d3f
00000310: 5e76 8cbf 652a fcbc 5839 0e3f a469 24bf
00000320: 4d70 713f f560 213f 6f79 abbf 7681 853e
00000330: 55b0 0e3f 6a43 503f 1030 ca3e 7760 1f3f
00000340: cf0a 143f 3fd4 c73e a31a 203f e7b6 5a3f
00000350: 5528 9cbf 029d 0d3f 11e4 243f 3fbc cdbc
00000360: a642 2a3f d431 813e 94f6 a2bf b9f2 29bd
00000370: b198 b23e e49d 353f c3f4 5b3e 1a7d 213f
00000380: d4c5 353f f641 8d3f 3b97 22bd bc5b c63e
00000390: 1f94 86bf 1fad 243f 457c d53e 2b9b 7abf
000003a0: a993 a73f 057d 213f 426b 6cbf 3c8b 8b3e
000003b0: 95f9 853e 325e a03e 881b f93e fde5 873e
000003c0: 24bc 1c3e b88a fbbe 0513 e03e e8d8 00bf
000003d0: 8eeb ae3f 074c 48bd e8b1 0cbe 7b3d fb3e
000003e0: ff84 57bd c175 abbe 3c68 a63f e585 0fbe
000003f0: 171f f1bd 04dc 21be 34c1 1f3f cfdc 8f3d

bias f4 [16]
0.19612183 -0.035624836 -0.015503696 0.17716146 -0.04045995 -0.015023262 0.08974857 0.05756457
0.16381936 0.45629254 -0.023349376 -0.10983677 0.09890556 0.1886735 0.12552637 -0.19104525
00000000: 29d4 483e 59eb 11bd 3703 7ebc d069 353e
00000010: 55b9 25bd 2124 76bc 19ce b73d d4c8 6b3d
00000020: 43c0 273e 2d9f e93e 3147 bfbc 1af2 e0bd
00000030: 008f ca3d a033 413e fc89 003e 5ea1 43be

weight f4 [16, 16]
0.7324225 0.0272274 0.65035415 -0.86481386 -0.102498405 0.650649 0.90908384 0.13859402
0.68579 -1.4104394 0.1286469 -0.21015008 0.16428624 0.52102107 0.7831448 -1.1489428
0.07170402 -0.052832656 -0.45572776 0.98511493 0.33577013 0.1987047 0.0834055 0.06323129
-0.24791695 -0.29343346 0.39293227 0.015051207 -0.4297181 0.13509594 0.14493714 0.1360344
0.34333172 -0.017005358 0.7235642 -1.1232046 -0.0847039 0.6062558 0.8919586 1.0378108
0.36244613 -1.1482066 0.7734309 0.023919888 0.8311115 0.90350187 0.28517565 -1.6296978
0.18203442 1.6428006e-05 1.278767 -0.8887447 -0.14814822 0.34580353 1.3021872 0.4380019
0.9944767 -1.3083031 0.3420156 -0.10736666 0.5305466 0.36715394 1.0110806 -1.4204357
-0.35312673 -0.005393024 -0.3968328 0.60177356 0.3183236 -0.17983419 0.03864167 -0.11179071
-0.11877785 0.15659188 0.3473553 0.08677687 0.038220197 0.19615458 -0.16061598 -0.18189627
0.009326842 0.13106003 -0.54839677 -0.17354386 0.23616669 0.31566814 0.12786052 -0.46723232
0.31643254 -0.21591412 0.4052301 -0.41629824 0.23510754 -0.21719411 -0.1970766 0.21833324
0.64804226 -0.032021474 0.9758378 -1.0351163 0.23784198 0.5297134 1.101674 0.57355464
0.7774912 0.22979277 0.36056128 0.12837043 0.85768783 0.9345445 0.42495936 -1.4230064
0.94274783 -0.00012837064 -0.57293826 0.8270654 -0.050436266 -1.0288185 -0.8576768 -1.1199727
0.42905995 0.56451315 -0.769278 -0.022851182 -0.37781045 -0.4195916 -1.1390116 1.3238022
0.10856446 -0.09244264 1.1006951 -1.2238666 -0.26718497 0.83737016 0.85103226 0.6249395
0.6268659 -1.2483649 0.7365286 -0.10209238 0.28947365 0.7186295 0.7157312 -1.4863452
0.6300303 -0.020706778 0.39810327 -0.87805074 0.07219106 0.42944455 0.9944057 0.4942953
0.19447623 -1.2817909 0.2567121 0.1591627 0.7223972 0.787031 0.5179779 -1.4488369
-0.35067394 0.00014781707 -0.013591498 -0.10953216 0.099252865 -0.42247856 0.023412723 0.34234273
-0.128446 -0.114700824 0.089864574 -0.027006024 -0.15189515 0.15467532 0.09362383 -0.022254089
0.143654 0.037575692 0.25033367 -0.2546543 0.24113567 0.35609704 0.003706996 -0.050422292
-0.26803413 -0.21351093 -0.3006638 0.07790284 0.0251869 -0.057346243 -0.22543243 -0.33846977
0.40780604 0.14292517 0.5656849 -0.1380921 0.21406649 0.3355794 0.52372676 0.7257778
0.8323937 0.030734874 0.76397085 0.36883134 0.8371211 0.8828467 0.54910606 -1.275873
0.64088225 7.8272154e-05 1.1103258 -1.3281517 -0.0541061 0.288009 0.5957578 0.6205724
0.81954825 -1.2810947 0.8823987 -0.15927435 0.55325866 0.85200495 0.4801883 -1.5769314
-0.077245094 -0.005077985 -0.27154797 -0.040288527 0.16181067 0.12907833 -0.00029579597 0.1685574
-0.40895972 0.010489088 -0.16881372 -0.3384067 0.08965542 -0.00011888099 -0.30325618 -0.20753486
0.6489498 -0.22597314 0.5093717 -1.1984162 -0.051811386 0.59050995 0.51121855 0.38352355
0.39281124 -1.1951435 0.86924636 -0.16531469 0.6549409 0.55010456 0.42323923 -1.059208
00000000: 0a80 3b3f ff0b df3c 9c7d 263f 7164 5dbf
00000010: afea d1bd ef90 263f b8b9 683f 97eb 0d3e
00000020: ef8f 2f3f 4789 b4bf 03bc 033e 9531 57be
00000030: a73a 283e a361 053f 2d7c 483f 8f10 93bf
00000040: 8fd9 923d 0e67 58bd 2655 e9be 7e30 7c3f
00000050: 10ea ab3e 3f79 4b3e 81d0 aa3d 687f 813d
00000060: f1dd 7dbe e93c 96be 6b2e c93e 5699 763c
00000070: 0304 dcbe 9756 0a3e 676a 143e 9a4c 0b3e
00000080: 2dc9 af3e d24e 8bbc 813b 393f 2bc5 8fbf
00000090: 3d79 adbd 9533 1b3f 6657 643f fcd6 843f
000000a0: 8a92 b93e 6ff8 92bf 91ff 453f a4f3 c33c
000000b0: b9c3 543f e64b 673f 8b02 923e f099 d0bf
000000c0: 3b67 3a3e e0ce 8937 a3ae a33f c684 63bf
000000d0: 2bb4 17be 290d b13e 12ae a63f c941 e03e
000000e0: 0696 7e3f 7a76 a7bf ab1c af3e 0de3 dbbd
000000f0: e7d1 073f 9afb bb3e 176b 813f d6d0 b5bf
00000100: 07cd b4be f7b7 b0bb ab2d cbbe d50d 1a3f
00000110: 50fb a23e 7426 38be ba46 1e3d 87f2 e4bd
00000120: cd41 f3bd 9f59 203e 8ed8 b13e 12b8 b13d
00000130: c88c 1c3d bfdc 483e 8478 24be 0443 3abe
00000140: 9ccf 183c 9a34 063e bb63 0cbf 7bb5 31be
00000150: aed5 713e 419f a13e deed 023e 1339 efbe
00000160: 7203 a23e 9718 5dbe 527a cf3e 0b25 d5be
00000170: 08c0 703e 2268 5ebe 73ce 49be c092 5f3e
00000180: 19e6 253f f328 03bd 82d0 793f b17e 84bf
00000190: d98c 733e 4c9b 073f a703 8d3f 7ad4 123f
000001a0: aa09 473f cc4e 6b3e 7d9b b83e 8a73 033e
000001b0: 6e91 5b3f 4f3e 6f3f 4694 d93e 1325 b6bf
000001c0: ec57 713f 3b9b 06b9 15ac 12bf 8fba 533f
000001d0: 4296 4ebd 53b0 83bf b590 5bbf 445b 8fbf
000001e0: bfad db3e ef83 103f 67ef 44bf 6732 bbbc
000001f0: 5f70 c1be b6d4 d6be 22cb 91bf 5a72 a93f
00000200: 0b57 de3d 9152 bdbd 94e3 8c3f a9a7 9cbf
00000210: 78cc 88be e45d 563f 40dd 593f 09fc 1f3f
00000220: 497a 203f 6cca 9fbf 238d 3c3f cf15 d1bd
00000230: e435 943e 1af8 373f 293a 373f 8f40 bebf
00000240: aa49 213f 43a1 a9bc 31d4 cb3e efc7 60bf
00000250: e8d8 933d 28e0 db3e 5f91 7e3f 4614 fd3e
00000260: c724 473e b911 a4bf c56f 833e 8cfb 223e
00000270: 06ef 383f dd7a 493f 339a 043f 7d73 b9bf
00000280: 898b b3be 58ff 1a39 e0ae 5ebc 6652 e0bd
00000290: 1645 cb3d 1c4f d8be 0acc bf3c 8c47 af3e
000002a0: 5987 03be 44e8 eabd eb0a b83d bd3b ddbc
000002b0: 678a 1bbe 3563 1e3e dabd bf3d 354e b6bc
000002c0: 091a 133e f8e8 193d bc2b 803e 0c62 82be
000002d0: 45ec 763e 5a52 b63e 13f1 723b 9b87 4ebd
000002e0: c53b 89be 9ca2 5abe 9bf0 99be 868b 9f3d
000002f0: c254 ce3c e5e3 6abd c2d7 66be e94b adbe
00000300: f4cb d03e fa5a 123e bad0 103f 0468 0dbe
00000310: 3f34 5b3e 10d1 ab3e f512 063f 93cc 393f
00000320: c117 553f b4c7 fb3c 9893 433f 76d7 bc3e
00000330: 924d 563f 3e02 623f 3792 0c3f ce4f a3bf
00000340: dc10 243f 0b26 a438 281f 8e3f e000 aabf
00000350: 5c9e 5dbd ea75 933e 9583 183f d5dd 1e3f
00000360: eacd 513f e9fa a3bf e2e4 613f d118 23be
00000370: 5ca2 0d3f ff1c 5a3f 3edb f53e e3d8 c9bf
00000380: ad32 9ebd 3a65 a6bb 5608 8bbe 9505 25bd
00000390: b2b1 253e 1c2d 043e 1015 9bb9 509a 2c3e
000003a0: 2b63 d1be 6cda 2b3c 81dd 2cbe a543 adbe
000003b0: 439d b73d bf4f f9b8 6544 9bbe 0584 54be
000003c0: 9321 263f 8165 67be 2f66 023f b465 99bf
000003d0: 2d38 54bd a92b 173f 38df 023f 335d c43e
000003e0: 8e1e c93e 76fa 98bf ee86 5e3f 4148 29be
000003f0: 35aa 273f a7d3 0c3f d0b2 d83e 2194 87bf

bias f4 [16]
0.13489713 -0.13999143 0.14390388 0.11169967 -0.081007205 -0.10683125 0.24494216 0.83952576
0.117769964 0.12443086 -0.06144081 -0.048784353 0.2415093 0.13250124 -0.05107035 0.11227718
00000000: 7922 0a3e ea59 0fbe 8a5b 133e ccc2 e43d
00000010: 1be7 a5bd 58ca dabd 1ed2 7a3e 29eb 563f
00000020: 6131 f13d 9bd5 fe3d 5ca9 7bbd 1ad2 47bd
00000030: 374e 773e 68ae 073e 252f 51bd 94f1 e53d

weight f4 [1, 16]
1.228079 -0.8785249 0.7483722 1.0627593 -0.7535985 -0.6460516 0.840446 1.079559
1.2744285 1.1186947 -0.09053658 -0.25672975 0.8357652 0.8485397 -0.42888317 1.1615117
00000000: b131 9d3f 02e7 60bf 5295 3f3f 7f08 883f
00000010: d5eb 40bf a363 25bf 7827 573f fd2e 8a3f
00000020: 7920 a33f 6331 8f3f 3e6b b9bd 1572 83be
00000030: b5f4 553f e639 593f 9396 dbbe 6aac 943f
